Script started on 2021-03-15 17:56:32+0900
(base) ]0;woongkyu@watson: ~/hago/tvm/tests/python/nightly/quantizationwoongkyu@watson:~/hago/tvm/tests/python/nightly/quantization$ conda activaet t[K[K[K[Kte tvm-build
(tvm-build) ]0;woongkyu@watson: ~/hago/tvm/tests/python/nightly/quantizationwoongkyu@watson:~/hago/tvm/tests/python/nightly/quantization$ python3 learning_based_quantize.py 
[17:56:42] src/io/iter_image_recordio_2.cc:178: ImageRecordIOParser2: /home/woongkyu/imagenet/val.rec, use 4 threads for decoding..
INFO:compile_engine:Use implementation injective.cpu for op add
INFO:compile_engine:Use implementation injective.cpu for op sqrt
INFO:compile_engine:Use implementation injective.cpu for op divide
INFO:compile_engine:Use implementation injective.cpu for op multiply
INFO:compile_engine:Use implementation injective.cpu for op expand_dims
INFO:compile_engine:Use implementation injective.cpu for op negative
INFO:compile_engine:Use implementation injective.cpu for op add
INFO:compile_engine:Use implementation injective.cpu for op add
INFO:compile_engine:Use implementation injective.cpu for op sqrt
INFO:compile_engine:Use implementation injective.cpu for op divide
INFO:compile_engine:Use implementation injective.cpu for op multiply
INFO:compile_engine:Use implementation injective.cpu for op expand_dims
INFO:compile_engine:Use implementation injective.cpu for op negative
INFO:compile_engine:Use implementation injective.cpu for op add
INFO:compile_engine:Use implementation injective.cpu for op add
INFO:compile_engine:Use implementation injective.cpu for op sqrt
INFO:compile_engine:Use implementation injective.cpu for op divide
INFO:compile_engine:Use implementation injective.cpu for op multiply
INFO:compile_engine:Use implementation injective.cpu for op expand_dims
INFO:compile_engine:Use implementation injective.cpu for op negative
INFO:compile_engine:Use implementation injective.cpu for op add
INFO:compile_engine:Use implementation injective.cpu for op add
INFO:compile_engine:Use implementation injective.cpu for op sqrt
INFO:compile_engine:Use implementation injective.cpu for op divide
INFO:compile_engine:Use implementation injective.cpu for op multiply
INFO:compile_engine:Use implementation injective.cpu for op expand_dims
INFO:compile_engine:Use implementation injective.cpu for op negative
INFO:compile_engine:Use implementation injective.cpu for op add
INFO:compile_engine:Use implementation injective.cpu for op squeeze
INFO:compile_engine:Use implementation injective.cpu for op expand_dims
INFO:compile_engine:Use implementation injective.cpu for op multiply
INFO:compile_engine:Use implementation injective.cpu for op multiply
INFO:compile_engine:Use implementation injective.cpu for op squeeze
INFO:compile_engine:Use implementation injective.cpu for op expand_dims
INFO:compile_engine:Use implementation injective.cpu for op multiply
INFO:compile_engine:Use implementation injective.cpu for op multiply
INFO:compile_engine:Use implementation injective.cpu for op multiply
INFO:compile_engine:Use implementation injective.cpu for op squeeze
INFO:compile_engine:Use implementation injective.cpu for op expand_dims
INFO:compile_engine:Use implementation injective.cpu for op multiply
INFO:compile_engine:Use implementation injective.cpu for op multiply
INFO:compile_engine:Use implementation injective.cpu for op multiply
INFO:compile_engine:Use implementation injective.cpu for op squeeze
INFO:compile_engine:Use implementation injective.cpu for op expand_dims
INFO:compile_engine:Use implementation injective.cpu for op multiply
INFO:compile_engine:Use implementation injective.cpu for op multiply
INFO:compile_engine:Use implementation injective.cpu for op multiply
DEBUG:root:original
DEBUG:root:v0.0.4
fn (%data: Tensor[(32, 3, 224, 224), float32]) -> Tensor[(32, 1000), float32] {
  %0 = nn.conv2d(%data, meta[relay.Constant][0] /* ty=Tensor[(64, 3, 7, 7), float32] */ /* ty=Tensor[(64, 3, 7, 7), float32] */, strides=[2, 2], padding=[3, 3, 3, 3], channels=64, kernel_size=[7, 7]) /* ty=Tensor[(32, 64, 112, 112), float32] */;
  %1 = add(%0, meta[relay.Constant][1] /* ty=Tensor[(64, 1, 1), float32] */ /* ty=Tensor[(64, 1, 1), float32] */) /* ty=Tensor[(32, 64, 112, 112), float32] */;
  %2 = nn.relu(%1) /* ty=Tensor[(32, 64, 112, 112), float32] */;
  %3 = nn.max_pool2d(%2, pool_size=[3, 3], strides=[2, 2], padding=[1, 1, 1, 1]) /* ty=Tensor[(32, 64, 56, 56), float32] */;
  %4 = nn.conv2d(%3, meta[relay.Constant][2] /* ty=Tensor[(64, 64, 3, 3), float32] */ /* ty=Tensor[(64, 64, 3, 3), float32] */, padding=[1, 1, 1, 1], channels=64, kernel_size=[3, 3]) /* ty=Tensor[(32, 64, 56, 56), float32] */;
  %5 = add(%4, meta[relay.Constant][3] /* ty=Tensor[(64, 1, 1), float32] */ /* ty=Tensor[(64, 1, 1), float32] */) /* ty=Tensor[(32, 64, 56, 56), float32] */;
  %6 = nn.relu(%5) /* ty=Tensor[(32, 64, 56, 56), float32] */;
  %7 = nn.conv2d(%6, meta[relay.Constant][4] /* ty=Tensor[(64, 64, 3, 3), float32] */ /* ty=Tensor[(64, 64, 3, 3), float32] */, padding=[1, 1, 1, 1], channels=64, kernel_size=[3, 3]) /* ty=Tensor[(32, 64, 56, 56), float32] */;
  %8 = add(%7, meta[relay.Constant][5] /* ty=Tensor[(64, 1, 1), float32] */ /* ty=Tensor[(64, 1, 1), float32] */) /* ty=Tensor[(32, 64, 56, 56), float32] */;
  %9 = add(%3, %8) /* ty=Tensor[(32, 64, 56, 56), float32] */;
  %10 = nn.relu(%9) /* ty=Tensor[(32, 64, 56, 56), float32] */;
  %11 = nn.conv2d(%10, meta[relay.Constant][6] /* ty=Tensor[(64, 64, 3, 3), float32] */ /* ty=Tensor[(64, 64, 3, 3), float32] */, padding=[1, 1, 1, 1], channels=64, kernel_size=[3, 3]) /* ty=Tensor[(32, 64, 56, 56), float32] */;
  %12 = add(%11, meta[relay.Constant][7] /* ty=Tensor[(64, 1, 1), float32] */ /* ty=Tensor[(64, 1, 1), float32] */) /* ty=Tensor[(32, 64, 56, 56), float32] */;
  %13 = nn.relu(%12) /* ty=Tensor[(32, 64, 56, 56), float32] */;
  %14 = nn.conv2d(%13, meta[relay.Constant][8] /* ty=Tensor[(64, 64, 3, 3), float32] */ /* ty=Tensor[(64, 64, 3, 3), float32] */, padding=[1, 1, 1, 1], channels=64, kernel_size=[3, 3]) /* ty=Tensor[(32, 64, 56, 56), float32] */;
  %15 = add(%14, meta[relay.Constant][9] /* ty=Tensor[(64, 1, 1), float32] */ /* ty=Tensor[(64, 1, 1), float32] */) /* ty=Tensor[(32, 64, 56, 56), float32] */;
  %16 = add(%10, %15) /* ty=Tensor[(32, 64, 56, 56), float32] */;
  %17 = nn.relu(%16) /* ty=Tensor[(32, 64, 56, 56), float32] */;
  %18 = nn.conv2d(%17, meta[relay.Constant][10] /* ty=Tensor[(128, 64, 1, 1), float32] */ /* ty=Tensor[(128, 64, 1, 1), float32] */, strides=[2, 2], padding=[0, 0, 0, 0], channels=128, kernel_size=[1, 1]) /* ty=Tensor[(32, 128, 28, 28), float32] */;
  %19 = add(%18, meta[relay.Constant][11] /* ty=Tensor[(128, 1, 1), float32] */ /* ty=Tensor[(128, 1, 1), float32] */) /* ty=Tensor[(32, 128, 28, 28), float32] */;
  %20 = nn.conv2d(%17, meta[relay.Constant][12] /* ty=Tensor[(128, 64, 3, 3), float32] */ /* ty=Tensor[(128, 64, 3, 3), float32] */, strides=[2, 2], padding=[1, 1, 1, 1], channels=128, kernel_size=[3, 3]) /* ty=Tensor[(32, 128, 28, 28), float32] */;
  %21 = add(%20, meta[relay.Constant][13] /* ty=Tensor[(128, 1, 1), float32] */ /* ty=Tensor[(128, 1, 1), float32] */) /* ty=Tensor[(32, 128, 28, 28), float32] */;
  %22 = nn.relu(%21) /* ty=Tensor[(32, 128, 28, 28), float32] */;
  %23 = nn.conv2d(%22, meta[relay.Constant][14] /* ty=Tensor[(128, 128, 3, 3), float32] */ /* ty=Tensor[(128, 128, 3, 3), float32] */, padding=[1, 1, 1, 1], channels=128, kernel_size=[3, 3]) /* ty=Tensor[(32, 128, 28, 28), float32] */;
  %24 = add(%23, meta[relay.Constant][15] /* ty=Tensor[(128, 1, 1), float32] */ /* ty=Tensor[(128, 1, 1), float32] */) /* ty=Tensor[(32, 128, 28, 28), float32] */;
  %25 = add(%19, %24) /* ty=Tensor[(32, 128, 28, 28), float32] */;
  %26 = nn.relu(%25) /* ty=Tensor[(32, 128, 28, 28), float32] */;
  %27 = nn.conv2d(%26, meta[relay.Constant][16] /* ty=Tensor[(128, 128, 3, 3), float32] */ /* ty=Tensor[(128, 128, 3, 3), float32] */, padding=[1, 1, 1, 1], channels=128, kernel_size=[3, 3]) /* ty=Tensor[(32, 128, 28, 28), float32] */;
  %28 = add(%27, meta[relay.Constant][17] /* ty=Tensor[(128, 1, 1), float32] */ /* ty=Tensor[(128, 1, 1), float32] */) /* ty=Tensor[(32, 128, 28, 28), float32] */;
  %29 = nn.relu(%28) /* ty=Tensor[(32, 128, 28, 28), float32] */;
  %30 = nn.conv2d(%29, meta[relay.Constant][18] /* ty=Tensor[(128, 128, 3, 3), float32] */ /* ty=Tensor[(128, 128, 3, 3), float32] */, padding=[1, 1, 1, 1], channels=128, kernel_size=[3, 3]) /* ty=Tensor[(32, 128, 28, 28), float32] */;
  %31 = add(%30, meta[relay.Constant][19] /* ty=Tensor[(128, 1, 1), float32] */ /* ty=Tensor[(128, 1, 1), float32] */) /* ty=Tensor[(32, 128, 28, 28), float32] */;
  %32 = add(%26, %31) /* ty=Tensor[(32, 128, 28, 28), float32] */;
  %33 = nn.relu(%32) /* ty=Tensor[(32, 128, 28, 28), float32] */;
  %34 = nn.conv2d(%33, meta[relay.Constant][20] /* ty=Tensor[(256, 128, 1, 1), float32] */ /* ty=Tensor[(256, 128, 1, 1), float32] */, strides=[2, 2], padding=[0, 0, 0, 0], channels=256, kernel_size=[1, 1]) /* ty=Tensor[(32, 256, 14, 14), float32] */;
  %35 = add(%34, meta[relay.Constant][21] /* ty=Tensor[(256, 1, 1), float32] */ /* ty=Tensor[(256, 1, 1), float32] */) /* ty=Tensor[(32, 256, 14, 14), float32] */;
  %36 = nn.conv2d(%33, meta[relay.Constant][22] /* ty=Tensor[(256, 128, 3, 3), float32] */ /* ty=Tensor[(256, 128, 3, 3), float32] */, strides=[2, 2], padding=[1, 1, 1, 1], channels=256, kernel_size=[3, 3]) /* ty=Tensor[(32, 256, 14, 14), float32] */;
  %37 = add(%36, meta[relay.Constant][23] /* ty=Tensor[(256, 1, 1), float32] */ /* ty=Tensor[(256, 1, 1), float32] */) /* ty=Tensor[(32, 256, 14, 14), float32] */;
  %38 = nn.relu(%37) /* ty=Tensor[(32, 256, 14, 14), float32] */;
  %39 = nn.conv2d(%38, meta[relay.Constant][24] /* ty=Tensor[(256, 256, 3, 3), float32] */ /* ty=Tensor[(256, 256, 3, 3), float32] */, padding=[1, 1, 1, 1], channels=256, kernel_size=[3, 3]) /* ty=Tensor[(32, 256, 14, 14), float32] */;
  %40 = add(%39, meta[relay.Constant][25] /* ty=Tensor[(256, 1, 1), float32] */ /* ty=Tensor[(256, 1, 1), float32] */) /* ty=Tensor[(32, 256, 14, 14), float32] */;
  %41 = add(%35, %40) /* ty=Tensor[(32, 256, 14, 14), float32] */;
  %42 = nn.relu(%41) /* ty=Tensor[(32, 256, 14, 14), float32] */;
  %43 = nn.conv2d(%42, meta[relay.Constant][26] /* ty=Tensor[(256, 256, 3, 3), float32] */ /* ty=Tensor[(256, 256, 3, 3), float32] */, padding=[1, 1, 1, 1], channels=256, kernel_size=[3, 3]) /* ty=Tensor[(32, 256, 14, 14), float32] */;
  %44 = add(%43, meta[relay.Constant][27] /* ty=Tensor[(256, 1, 1), float32] */ /* ty=Tensor[(256, 1, 1), float32] */) /* ty=Tensor[(32, 256, 14, 14), float32] */;
  %45 = nn.relu(%44) /* ty=Tensor[(32, 256, 14, 14), float32] */;
  %46 = nn.conv2d(%45, meta[relay.Constant][28] /* ty=Tensor[(256, 256, 3, 3), float32] */ /* ty=Tensor[(256, 256, 3, 3), float32] */, padding=[1, 1, 1, 1], channels=256, kernel_size=[3, 3]) /* ty=Tensor[(32, 256, 14, 14), float32] */;
  %47 = add(%46, meta[relay.Constant][29] /* ty=Tensor[(256, 1, 1), float32] */ /* ty=Tensor[(256, 1, 1), float32] */) /* ty=Tensor[(32, 256, 14, 14), float32] */;
  %48 = add(%42, %47) /* ty=Tensor[(32, 256, 14, 14), float32] */;
  %49 = nn.relu(%48) /* ty=Tensor[(32, 256, 14, 14), float32] */;
  %50 = nn.conv2d(%49, meta[relay.Constant][30] /* ty=Tensor[(512, 256, 1, 1), float32] */ /* ty=Tensor[(512, 256, 1, 1), float32] */, strides=[2, 2], padding=[0, 0, 0, 0], channels=512, kernel_size=[1, 1]) /* ty=Tensor[(32, 512, 7, 7), float32] */;
  %51 = add(%50, meta[relay.Constant][31] /* ty=Tensor[(512, 1, 1), float32] */ /* ty=Tensor[(512, 1, 1), float32] */) /* ty=Tensor[(32, 512, 7, 7), float32] */;
  %52 = nn.conv2d(%49, meta[relay.Constant][32] /* ty=Tensor[(512, 256, 3, 3), float32] */ /* ty=Tensor[(512, 256, 3, 3), float32] */, strides=[2, 2], padding=[1, 1, 1, 1], channels=512, kernel_size=[3, 3]) /* ty=Tensor[(32, 512, 7, 7), float32] */;
  %53 = add(%52, meta[relay.Constant][33] /* ty=Tensor[(512, 1, 1), float32] */ /* ty=Tensor[(512, 1, 1), float32] */) /* ty=Tensor[(32, 512, 7, 7), float32] */;
  %54 = nn.relu(%53) /* ty=Tensor[(32, 512, 7, 7), float32] */;
  %55 = nn.conv2d(%54, meta[relay.Constant][34] /* ty=Tensor[(512, 512, 3, 3), float32] */ /* ty=Tensor[(512, 512, 3, 3), float32] */, padding=[1, 1, 1, 1], channels=512, kernel_size=[3, 3]) /* ty=Tensor[(32, 512, 7, 7), float32] */;
  %56 = add(%55, meta[relay.Constant][35] /* ty=Tensor[(512, 1, 1), float32] */ /* ty=Tensor[(512, 1, 1), float32] */) /* ty=Tensor[(32, 512, 7, 7), float32] */;
  %57 = add(%51, %56) /* ty=Tensor[(32, 512, 7, 7), float32] */;
  %58 = nn.relu(%57) /* ty=Tensor[(32, 512, 7, 7), float32] */;
  %59 = nn.conv2d(%58, meta[relay.Constant][36] /* ty=Tensor[(512, 512, 3, 3), float32] */ /* ty=Tensor[(512, 512, 3, 3), float32] */, padding=[1, 1, 1, 1], channels=512, kernel_size=[3, 3]) /* ty=Tensor[(32, 512, 7, 7), float32] */;
  %60 = add(%59, meta[relay.Constant][37] /* ty=Tensor[(512, 1, 1), float32] */ /* ty=Tensor[(512, 1, 1), float32] */) /* ty=Tensor[(32, 512, 7, 7), float32] */;
  %61 = nn.relu(%60) /* ty=Tensor[(32, 512, 7, 7), float32] */;
  %62 = nn.conv2d(%61, meta[relay.Constant][38] /* ty=Tensor[(512, 512, 3, 3), float32] */ /* ty=Tensor[(512, 512, 3, 3), float32] */, padding=[1, 1, 1, 1], channels=512, kernel_size=[3, 3]) /* ty=Tensor[(32, 512, 7, 7), float32] */;
  %63 = add(%62, meta[relay.Constant][39] /* ty=Tensor[(512, 1, 1), float32] */ /* ty=Tensor[(512, 1, 1), float32] */) /* ty=Tensor[(32, 512, 7, 7), float32] */;
  %64 = add(%58, %63) /* ty=Tensor[(32, 512, 7, 7), float32] */;
  %65 = nn.relu(%64) /* ty=Tensor[(32, 512, 7, 7), float32] */;
  %66 = nn.global_avg_pool2d(%65) /* ty=Tensor[(32, 512, 1, 1), float32] */;
  %67 = nn.batch_flatten(%66) /* ty=Tensor[(32, 512), float32] */;
  %68 = nn.dense(%67, meta[relay.Constant][40] /* ty=Tensor[(1000, 512), float32] */ /* ty=Tensor[(1000, 512), float32] */, units=1000) /* ty=Tensor[(32, 1000), float32] */;
  add(%68, meta[relay.Constant][41] /* ty=Tensor[(1000), float32] */ /* ty=Tensor[(1000), float32] */) /* ty=Tensor[(32, 1000), float32] */
}
// meta data omitted. you can use show_meta_data=True to include meta data
DEBUG:autotvm:Finish loading 688 records
WARNING:autotvm:Cannot find config for target=cuda -keys=cuda,gpu -max_num_threads=1024 -thread_warp_size=32, workload=('conv2d_nchw.cuda', ('TENSOR', (32, 3, 224, 224), 'float32'), ('TENSOR', (64, 3, 7, 7), 'float32'), (2, 2), (3, 3, 3, 3), (1, 1), 'float32'). A fallback configuration is used, which may bring great performance regression.
WARNING:autotvm:Cannot find config for target=cuda -keys=cuda,gpu -max_num_threads=1024 -thread_warp_size=32, workload=('conv2d_nchw.cuda', ('TENSOR', (32, 64, 56, 56), 'float32'), ('TENSOR', (64, 64, 3, 3), 'float32'), (1, 1), (1, 1, 1, 1), (1, 1), 'float32'). A fallback configuration is used, which may bring great performance regression.
WARNING:autotvm:Cannot find config for target=cuda -keys=cuda,gpu -max_num_threads=1024 -thread_warp_size=32, workload=('conv2d_nchw.cuda', ('TENSOR', (32, 64, 56, 56), 'float32'), ('TENSOR', (128, 64, 1, 1), 'float32'), (2, 2), (0, 0, 0, 0), (1, 1), 'float32'). A fallback configuration is used, which may bring great performance regression.
WARNING:autotvm:Cannot find config for target=cuda -keys=cuda,gpu -max_num_threads=1024 -thread_warp_size=32, workload=('conv2d_nchw.cuda', ('TENSOR', (32, 64, 56, 56), 'float32'), ('TENSOR', (128, 64, 3, 3), 'float32'), (2, 2), (1, 1, 1, 1), (1, 1), 'float32'). A fallback configuration is used, which may bring great performance regression.
WARNING:autotvm:Cannot find config for target=cuda -keys=cuda,gpu -max_num_threads=1024 -thread_warp_size=32, workload=('conv2d_nchw.cuda', ('TENSOR', (32, 128, 28, 28), 'float32'), ('TENSOR', (128, 128, 3, 3), 'float32'), (1, 1), (1, 1, 1, 1), (1, 1), 'float32'). A fallback configuration is used, which may bring great performance regression.
WARNING:autotvm:Cannot find config for target=cuda -keys=cuda,gpu -max_num_threads=1024 -thread_warp_size=32, workload=('conv2d_nchw.cuda', ('TENSOR', (32, 128, 28, 28), 'float32'), ('TENSOR', (256, 128, 1, 1), 'float32'), (2, 2), (0, 0, 0, 0), (1, 1), 'float32'). A fallback configuration is used, which may bring great performance regression.
WARNING:autotvm:Cannot find config for target=cuda -keys=cuda,gpu -max_num_threads=1024 -thread_warp_size=32, workload=('conv2d_nchw.cuda', ('TENSOR', (32, 128, 28, 28), 'float32'), ('TENSOR', (256, 128, 3, 3), 'float32'), (2, 2), (1, 1, 1, 1), (1, 1), 'float32'). A fallback configuration is used, which may bring great performance regression.
WARNING:autotvm:Cannot find config for target=cuda -keys=cuda,gpu -max_num_threads=1024 -thread_warp_size=32, workload=('conv2d_nchw.cuda', ('TENSOR', (32, 256, 14, 14), 'float32'), ('TENSOR', (256, 256, 3, 3), 'float32'), (1, 1), (1, 1, 1, 1), (1, 1), 'float32'). A fallback configuration is used, which may bring great performance regression.
WARNING:autotvm:Cannot find config for target=cuda -keys=cuda,gpu -max_num_threads=1024 -thread_warp_size=32, workload=('conv2d_nchw.cuda', ('TENSOR', (32, 256, 14, 14), 'float32'), ('TENSOR', (512, 256, 1, 1), 'float32'), (2, 2), (0, 0, 0, 0), (1, 1), 'float32'). A fallback configuration is used, which may bring great performance regression.
WARNING:autotvm:Cannot find config for target=cuda -keys=cuda,gpu -max_num_threads=1024 -thread_warp_size=32, workload=('conv2d_nchw.cuda', ('TENSOR', (32, 256, 14, 14), 'float32'), ('TENSOR', (512, 256, 3, 3), 'float32'), (2, 2), (1, 1, 1, 1), (1, 1), 'float32'). A fallback configuration is used, which may bring great performance regression.
WARNING:autotvm:Cannot find config for target=cuda -keys=cuda,gpu -max_num_threads=1024 -thread_warp_size=32, workload=('conv2d_nchw.cuda', ('TENSOR', (32, 512, 7, 7), 'float32'), ('TENSOR', (512, 512, 3, 3), 'float32'), (1, 1), (1, 1, 1, 1), (1, 1), 'float32'). A fallback configuration is used, which may bring great performance regression.
INFO:compile_engine:Use implementation injective.cpu for op expand_dims
INFO:compile_engine:Use implementation injective.cpu for op expand_dims
INFO:compile_engine:Use implementation injective.cpu for op expand_dims
INFO:compile_engine:Use implementation injective.cpu for op expand_dims
WARNING:autotvm:Cannot find config for target=cuda -keys=cuda,gpu -max_num_threads=1024 -thread_warp_size=32, workload=('dense_tensorcore.cuda', ('TENSOR', (32, 512), 'float32'), ('TENSOR', (1000, 512), 'float32'), None, 'float32'). A fallback configuration is used, which may bring great performance regression.
INFO:compile_engine:Use implementation dense_tensorcore.cuda for op nn.dense
INFO:compile_engine:Use implementation injective.cuda for op add
INFO:compile_engine:Use implementation injective.cuda for op nn.batch_flatten
INFO:compile_engine:Use implementation adaptive_pool.cuda for op nn.global_avg_pool2d
INFO:compile_engine:Use implementation conv2d_nchw.cuda for op nn.conv2d
INFO:compile_engine:Use implementation injective.cuda for op add
INFO:compile_engine:Use implementation injective.cuda for op add
INFO:compile_engine:Use implementation injective.cuda for op nn.relu
INFO:compile_engine:Use implementation conv2d_nchw.cuda for op nn.conv2d
INFO:compile_engine:Use implementation injective.cuda for op add
INFO:compile_engine:Use implementation injective.cuda for op add
INFO:compile_engine:Use implementation injective.cuda for op nn.relu
INFO:compile_engine:Use implementation conv2d_nchw.cuda for op nn.conv2d
INFO:compile_engine:Use implementation injective.cuda for op add
INFO:compile_engine:Use implementation injective.cuda for op add
INFO:compile_engine:Use implementation injective.cuda for op nn.relu
INFO:compile_engine:Use implementation conv2d_nchw.cuda for op nn.conv2d
INFO:compile_engine:Use implementation injective.cuda for op add
INFO:compile_engine:Use implementation injective.cuda for op add
INFO:compile_engine:Use implementation injective.cuda for op nn.relu
INFO:compile_engine:Use implementation conv2d_nchw.cuda for op nn.conv2d
INFO:compile_engine:Use implementation injective.cuda for op add
INFO:compile_engine:Use implementation injective.cuda for op add
INFO:compile_engine:Use implementation injective.cuda for op nn.relu
INFO:compile_engine:Use implementation conv2d_nchw.cuda for op nn.conv2d
INFO:compile_engine:Use implementation injective.cuda for op add
INFO:compile_engine:Use implementation injective.cuda for op add
INFO:compile_engine:Use implementation injective.cuda for op nn.relu
INFO:compile_engine:Use implementation conv2d_nchw.cuda for op nn.conv2d
INFO:compile_engine:Use implementation injective.cuda for op add
INFO:compile_engine:Use implementation injective.cuda for op add
INFO:compile_engine:Use implementation injective.cuda for op nn.relu
INFO:compile_engine:Use implementation pool.cuda for op nn.max_pool2d
INFO:compile_engine:Use implementation conv2d_nchw.cuda for op nn.conv2d
INFO:compile_engine:Use implementation injective.cuda for op add
INFO:compile_engine:Use implementation injective.cuda for op nn.relu
INFO:compile_engine:Use implementation conv2d_nchw.cuda for op nn.conv2d
INFO:compile_engine:Use implementation injective.cuda for op add
INFO:compile_engine:Use implementation injective.cuda for op nn.relu
INFO:compile_engine:Use implementation conv2d_nchw.cuda for op nn.conv2d
INFO:compile_engine:Use implementation injective.cuda for op add
INFO:compile_engine:Use implementation conv2d_nchw.cuda for op nn.conv2d
INFO:compile_engine:Use implementation injective.cuda for op add
INFO:compile_engine:Use implementation injective.cuda for op nn.relu
INFO:compile_engine:Use implementation conv2d_nchw.cuda for op nn.conv2d
INFO:compile_engine:Use implementation injective.cuda for op add
INFO:compile_engine:Use implementation injective.cuda for op nn.relu
INFO:compile_engine:Use implementation conv2d_nchw.cuda for op nn.conv2d
INFO:compile_engine:Use implementation injective.cuda for op add
INFO:compile_engine:Use implementation conv2d_nchw.cuda for op nn.conv2d
INFO:compile_engine:Use implementation injective.cuda for op add
INFO:compile_engine:Use implementation injective.cuda for op nn.relu
INFO:compile_engine:Use implementation conv2d_nchw.cuda for op nn.conv2d
INFO:compile_engine:Use implementation injective.cuda for op add
INFO:compile_engine:Use implementation injective.cuda for op nn.relu
INFO:compile_engine:Use implementation conv2d_nchw.cuda for op nn.conv2d
INFO:compile_engine:Use implementation injective.cuda for op add
INFO:compile_engine:Use implementation conv2d_nchw.cuda for op nn.conv2d
INFO:compile_engine:Use implementation injective.cuda for op add
INFO:compile_engine:Use implementation injective.cuda for op nn.relu
INFO:compile_engine:Use implementation conv2d_nchw.cuda for op nn.conv2d
INFO:compile_engine:Use implementation injective.cuda for op add
INFO:compile_engine:Use implementation injective.cuda for op nn.relu
learning_based_quantize.py:100: DeprecationWarning: legacy graph runtime behaviour of producing json / lib / params will be removed in the next release 
  graph, lib, params = relay.build(mod, target)
INFO:root:[3200 samples] validation: acc-top1=0.710625 acc-top5=0.910937
INFO:root:[6400 samples] validation: acc-top1=0.710938 acc-top5=0.905625
INFO:root:[9600 samples] validation: acc-top1=0.711771 acc-top5=0.903333
INFO:root:[12800 samples] validation: acc-top1=0.709063 acc-top5=0.899687
INFO:root:[16000 samples] validation: acc-top1=0.709125 acc-top5=0.900000
INFO:root:[19200 samples] validation: acc-top1=0.708333 acc-top5=0.899167
INFO:root:[22400 samples] validation: acc-top1=0.708750 acc-top5=0.898705
INFO:root:[25600 samples] validation: acc-top1=0.708633 acc-top5=0.897852
INFO:root:[28800 samples] validation: acc-top1=0.708472 acc-top5=0.897813
INFO:root:[32000 samples] validation: acc-top1=0.707969 acc-top5=0.897375
INFO:root:[35200 samples] validation: acc-top1=0.708608 acc-top5=0.897557
INFO:root:[38400 samples] validation: acc-top1=0.708594 acc-top5=0.897995
INFO:root:[41600 samples] validation: acc-top1=0.707476 acc-top5=0.898077
INFO:root:[44800 samples] validation: acc-top1=0.706964 acc-top5=0.898170
INFO:root:[48000 samples] validation: acc-top1=0.707750 acc-top5=0.898458
INFO:root:[final] validation: acc-top1=0.707750 acc-top5=0.898458
Final accuracy fp32 0.70775
DEBUG:root:original
DEBUG:root:v0.0.4
fn (%data: Tensor[(32, 3, 224, 224), float32]) -> Tensor[(32, 1000), float32] {
  %0 = nn.conv2d(%data, meta[relay.Constant][0] /* ty=Tensor[(64, 3, 7, 7), float32] */ /* ty=Tensor[(64, 3, 7, 7), float32] */, strides=[2, 2], padding=[3, 3, 3, 3], channels=64, kernel_size=[7, 7]) /* ty=Tensor[(32, 64, 112, 112), float32] */;
  %1 = add(%0, meta[relay.Constant][1] /* ty=Tensor[(64, 1, 1), float32] */ /* ty=Tensor[(64, 1, 1), float32] */) /* ty=Tensor[(32, 64, 112, 112), float32] */;
  %2 = nn.relu(%1) /* ty=Tensor[(32, 64, 112, 112), float32] */;
  %3 = nn.max_pool2d(%2, pool_size=[3, 3], strides=[2, 2], padding=[1, 1, 1, 1]) /* ty=Tensor[(32, 64, 56, 56), float32] */;
  %4 = nn.conv2d(%3, meta[relay.Constant][2] /* ty=Tensor[(64, 64, 3, 3), float32] */ /* ty=Tensor[(64, 64, 3, 3), float32] */, padding=[1, 1, 1, 1], channels=64, kernel_size=[3, 3]) /* ty=Tensor[(32, 64, 56, 56), float32] */;
  %5 = add(%4, meta[relay.Constant][3] /* ty=Tensor[(64, 1, 1), float32] */ /* ty=Tensor[(64, 1, 1), float32] */) /* ty=Tensor[(32, 64, 56, 56), float32] */;
  %6 = nn.relu(%5) /* ty=Tensor[(32, 64, 56, 56), float32] */;
  %7 = nn.conv2d(%6, meta[relay.Constant][4] /* ty=Tensor[(64, 64, 3, 3), float32] */ /* ty=Tensor[(64, 64, 3, 3), float32] */, padding=[1, 1, 1, 1], channels=64, kernel_size=[3, 3]) /* ty=Tensor[(32, 64, 56, 56), float32] */;
  %8 = add(%7, meta[relay.Constant][5] /* ty=Tensor[(64, 1, 1), float32] */ /* ty=Tensor[(64, 1, 1), float32] */) /* ty=Tensor[(32, 64, 56, 56), float32] */;
  %9 = add(%3, %8) /* ty=Tensor[(32, 64, 56, 56), float32] */;
  %10 = nn.relu(%9) /* ty=Tensor[(32, 64, 56, 56), float32] */;
  %11 = nn.conv2d(%10, meta[relay.Constant][6] /* ty=Tensor[(64, 64, 3, 3), float32] */ /* ty=Tensor[(64, 64, 3, 3), float32] */, padding=[1, 1, 1, 1], channels=64, kernel_size=[3, 3]) /* ty=Tensor[(32, 64, 56, 56), float32] */;
  %12 = add(%11, meta[relay.Constant][7] /* ty=Tensor[(64, 1, 1), float32] */ /* ty=Tensor[(64, 1, 1), float32] */) /* ty=Tensor[(32, 64, 56, 56), float32] */;
  %13 = nn.relu(%12) /* ty=Tensor[(32, 64, 56, 56), float32] */;
  %14 = nn.conv2d(%13, meta[relay.Constant][8] /* ty=Tensor[(64, 64, 3, 3), float32] */ /* ty=Tensor[(64, 64, 3, 3), float32] */, padding=[1, 1, 1, 1], channels=64, kernel_size=[3, 3]) /* ty=Tensor[(32, 64, 56, 56), float32] */;
  %15 = add(%14, meta[relay.Constant][9] /* ty=Tensor[(64, 1, 1), float32] */ /* ty=Tensor[(64, 1, 1), float32] */) /* ty=Tensor[(32, 64, 56, 56), float32] */;
  %16 = add(%10, %15) /* ty=Tensor[(32, 64, 56, 56), float32] */;
  %17 = nn.relu(%16) /* ty=Tensor[(32, 64, 56, 56), float32] */;
  %18 = nn.conv2d(%17, meta[relay.Constant][10] /* ty=Tensor[(128, 64, 1, 1), float32] */ /* ty=Tensor[(128, 64, 1, 1), float32] */, strides=[2, 2], padding=[0, 0, 0, 0], channels=128, kernel_size=[1, 1]) /* ty=Tensor[(32, 128, 28, 28), float32] */;
  %19 = add(%18, meta[relay.Constant][11] /* ty=Tensor[(128, 1, 1), float32] */ /* ty=Tensor[(128, 1, 1), float32] */) /* ty=Tensor[(32, 128, 28, 28), float32] */;
  %20 = nn.conv2d(%17, meta[relay.Constant][12] /* ty=Tensor[(128, 64, 3, 3), float32] */ /* ty=Tensor[(128, 64, 3, 3), float32] */, strides=[2, 2], padding=[1, 1, 1, 1], channels=128, kernel_size=[3, 3]) /* ty=Tensor[(32, 128, 28, 28), float32] */;
  %21 = add(%20, meta[relay.Constant][13] /* ty=Tensor[(128, 1, 1), float32] */ /* ty=Tensor[(128, 1, 1), float32] */) /* ty=Tensor[(32, 128, 28, 28), float32] */;
  %22 = nn.relu(%21) /* ty=Tensor[(32, 128, 28, 28), float32] */;
  %23 = nn.conv2d(%22, meta[relay.Constant][14] /* ty=Tensor[(128, 128, 3, 3), float32] */ /* ty=Tensor[(128, 128, 3, 3), float32] */, padding=[1, 1, 1, 1], channels=128, kernel_size=[3, 3]) /* ty=Tensor[(32, 128, 28, 28), float32] */;
  %24 = add(%23, meta[relay.Constant][15] /* ty=Tensor[(128, 1, 1), float32] */ /* ty=Tensor[(128, 1, 1), float32] */) /* ty=Tensor[(32, 128, 28, 28), float32] */;
  %25 = add(%19, %24) /* ty=Tensor[(32, 128, 28, 28), float32] */;
  %26 = nn.relu(%25) /* ty=Tensor[(32, 128, 28, 28), float32] */;
  %27 = nn.conv2d(%26, meta[relay.Constant][16] /* ty=Tensor[(128, 128, 3, 3), float32] */ /* ty=Tensor[(128, 128, 3, 3), float32] */, padding=[1, 1, 1, 1], channels=128, kernel_size=[3, 3]) /* ty=Tensor[(32, 128, 28, 28), float32] */;
  %28 = add(%27, meta[relay.Constant][17] /* ty=Tensor[(128, 1, 1), float32] */ /* ty=Tensor[(128, 1, 1), float32] */) /* ty=Tensor[(32, 128, 28, 28), float32] */;
  %29 = nn.relu(%28) /* ty=Tensor[(32, 128, 28, 28), float32] */;
  %30 = nn.conv2d(%29, meta[relay.Constant][18] /* ty=Tensor[(128, 128, 3, 3), float32] */ /* ty=Tensor[(128, 128, 3, 3), float32] */, padding=[1, 1, 1, 1], channels=128, kernel_size=[3, 3]) /* ty=Tensor[(32, 128, 28, 28), float32] */;
  %31 = add(%30, meta[relay.Constant][19] /* ty=Tensor[(128, 1, 1), float32] */ /* ty=Tensor[(128, 1, 1), float32] */) /* ty=Tensor[(32, 128, 28, 28), float32] */;
  %32 = add(%26, %31) /* ty=Tensor[(32, 128, 28, 28), float32] */;
  %33 = nn.relu(%32) /* ty=Tensor[(32, 128, 28, 28), float32] */;
  %34 = nn.conv2d(%33, meta[relay.Constant][20] /* ty=Tensor[(256, 128, 1, 1), float32] */ /* ty=Tensor[(256, 128, 1, 1), float32] */, strides=[2, 2], padding=[0, 0, 0, 0], channels=256, kernel_size=[1, 1]) /* ty=Tensor[(32, 256, 14, 14), float32] */;
  %35 = add(%34, meta[relay.Constant][21] /* ty=Tensor[(256, 1, 1), float32] */ /* ty=Tensor[(256, 1, 1), float32] */) /* ty=Tensor[(32, 256, 14, 14), float32] */;
  %36 = nn.conv2d(%33, meta[relay.Constant][22] /* ty=Tensor[(256, 128, 3, 3), float32] */ /* ty=Tensor[(256, 128, 3, 3), float32] */, strides=[2, 2], padding=[1, 1, 1, 1], channels=256, kernel_size=[3, 3]) /* ty=Tensor[(32, 256, 14, 14), float32] */;
  %37 = add(%36, meta[relay.Constant][23] /* ty=Tensor[(256, 1, 1), float32] */ /* ty=Tensor[(256, 1, 1), float32] */) /* ty=Tensor[(32, 256, 14, 14), float32] */;
  %38 = nn.relu(%37) /* ty=Tensor[(32, 256, 14, 14), float32] */;
  %39 = nn.conv2d(%38, meta[relay.Constant][24] /* ty=Tensor[(256, 256, 3, 3), float32] */ /* ty=Tensor[(256, 256, 3, 3), float32] */, padding=[1, 1, 1, 1], channels=256, kernel_size=[3, 3]) /* ty=Tensor[(32, 256, 14, 14), float32] */;
  %40 = add(%39, meta[relay.Constant][25] /* ty=Tensor[(256, 1, 1), float32] */ /* ty=Tensor[(256, 1, 1), float32] */) /* ty=Tensor[(32, 256, 14, 14), float32] */;
  %41 = add(%35, %40) /* ty=Tensor[(32, 256, 14, 14), float32] */;
  %42 = nn.relu(%41) /* ty=Tensor[(32, 256, 14, 14), float32] */;
  %43 = nn.conv2d(%42, meta[relay.Constant][26] /* ty=Tensor[(256, 256, 3, 3), float32] */ /* ty=Tensor[(256, 256, 3, 3), float32] */, padding=[1, 1, 1, 1], channels=256, kernel_size=[3, 3]) /* ty=Tensor[(32, 256, 14, 14), float32] */;
  %44 = add(%43, meta[relay.Constant][27] /* ty=Tensor[(256, 1, 1), float32] */ /* ty=Tensor[(256, 1, 1), float32] */) /* ty=Tensor[(32, 256, 14, 14), float32] */;
  %45 = nn.relu(%44) /* ty=Tensor[(32, 256, 14, 14), float32] */;
  %46 = nn.conv2d(%45, meta[relay.Constant][28] /* ty=Tensor[(256, 256, 3, 3), float32] */ /* ty=Tensor[(256, 256, 3, 3), float32] */, padding=[1, 1, 1, 1], channels=256, kernel_size=[3, 3]) /* ty=Tensor[(32, 256, 14, 14), float32] */;
  %47 = add(%46, meta[relay.Constant][29] /* ty=Tensor[(256, 1, 1), float32] */ /* ty=Tensor[(256, 1, 1), float32] */) /* ty=Tensor[(32, 256, 14, 14), float32] */;
  %48 = add(%42, %47) /* ty=Tensor[(32, 256, 14, 14), float32] */;
  %49 = nn.relu(%48) /* ty=Tensor[(32, 256, 14, 14), float32] */;
  %50 = nn.conv2d(%49, meta[relay.Constant][30] /* ty=Tensor[(512, 256, 1, 1), float32] */ /* ty=Tensor[(512, 256, 1, 1), float32] */, strides=[2, 2], padding=[0, 0, 0, 0], channels=512, kernel_size=[1, 1]) /* ty=Tensor[(32, 512, 7, 7), float32] */;
  %51 = add(%50, meta[relay.Constant][31] /* ty=Tensor[(512, 1, 1), float32] */ /* ty=Tensor[(512, 1, 1), float32] */) /* ty=Tensor[(32, 512, 7, 7), float32] */;
  %52 = nn.conv2d(%49, meta[relay.Constant][32] /* ty=Tensor[(512, 256, 3, 3), float32] */ /* ty=Tensor[(512, 256, 3, 3), float32] */, strides=[2, 2], padding=[1, 1, 1, 1], channels=512, kernel_size=[3, 3]) /* ty=Tensor[(32, 512, 7, 7), float32] */;
  %53 = add(%52, meta[relay.Constant][33] /* ty=Tensor[(512, 1, 1), float32] */ /* ty=Tensor[(512, 1, 1), float32] */) /* ty=Tensor[(32, 512, 7, 7), float32] */;
  %54 = nn.relu(%53) /* ty=Tensor[(32, 512, 7, 7), float32] */;
  %55 = nn.conv2d(%54, meta[relay.Constant][34] /* ty=Tensor[(512, 512, 3, 3), float32] */ /* ty=Tensor[(512, 512, 3, 3), float32] */, padding=[1, 1, 1, 1], channels=512, kernel_size=[3, 3]) /* ty=Tensor[(32, 512, 7, 7), float32] */;
  %56 = add(%55, meta[relay.Constant][35] /* ty=Tensor[(512, 1, 1), float32] */ /* ty=Tensor[(512, 1, 1), float32] */) /* ty=Tensor[(32, 512, 7, 7), float32] */;
  %57 = add(%51, %56) /* ty=Tensor[(32, 512, 7, 7), float32] */;
  %58 = nn.relu(%57) /* ty=Tensor[(32, 512, 7, 7), float32] */;
  %59 = nn.conv2d(%58, meta[relay.Constant][36] /* ty=Tensor[(512, 512, 3, 3), float32] */ /* ty=Tensor[(512, 512, 3, 3), float32] */, padding=[1, 1, 1, 1], channels=512, kernel_size=[3, 3]) /* ty=Tensor[(32, 512, 7, 7), float32] */;
  %60 = add(%59, meta[relay.Constant][37] /* ty=Tensor[(512, 1, 1), float32] */ /* ty=Tensor[(512, 1, 1), float32] */) /* ty=Tensor[(32, 512, 7, 7), float32] */;
  %61 = nn.relu(%60) /* ty=Tensor[(32, 512, 7, 7), float32] */;
  %62 = nn.conv2d(%61, meta[relay.Constant][38] /* ty=Tensor[(512, 512, 3, 3), float32] */ /* ty=Tensor[(512, 512, 3, 3), float32] */, padding=[1, 1, 1, 1], channels=512, kernel_size=[3, 3]) /* ty=Tensor[(32, 512, 7, 7), float32] */;
  %63 = add(%62, meta[relay.Constant][39] /* ty=Tensor[(512, 1, 1), float32] */ /* ty=Tensor[(512, 1, 1), float32] */) /* ty=Tensor[(32, 512, 7, 7), float32] */;
  %64 = add(%58, %63) /* ty=Tensor[(32, 512, 7, 7), float32] */;
  %65 = nn.relu(%64) /* ty=Tensor[(32, 512, 7, 7), float32] */;
  %66 = nn.global_avg_pool2d(%65) /* ty=Tensor[(32, 512, 1, 1), float32] */;
  %67 = nn.batch_flatten(%66) /* ty=Tensor[(32, 512), float32] */;
  %68 = nn.dense(%67, meta[relay.Constant][40] /* ty=Tensor[(1000, 512), float32] */ /* ty=Tensor[(1000, 512), float32] */, units=1000) /* ty=Tensor[(32, 1000), float32] */;
  add(%68, meta[relay.Constant][41] /* ty=Tensor[(1000), float32] */ /* ty=Tensor[(1000), float32] */) /* ty=Tensor[(32, 1000), float32] */
}
// meta data omitted. you can use show_meta_data=True to include meta data
DEBUG:root:current quantize config
DEBUG:root:<tvm.hago.base.QConfig object at 0x7fa89e7e3b50>
data
constant
nn.conv2d
constant
add
nn.relu
nn.max_pool2d
constant
nn.conv2d
constant
add
nn.relu
constant
nn.conv2d
constant
add
add
nn.relu
constant
nn.conv2d
constant
add
nn.relu
constant
nn.conv2d
constant
add
add
nn.relu
constant
nn.conv2d
constant
add
constant
nn.conv2d
constant
add
nn.relu
constant
nn.conv2d
constant
add
add
nn.relu
constant
nn.conv2d
constant
add
nn.relu
constant
nn.conv2d
constant
add
add
nn.relu
constant
nn.conv2d
constant
add
constant
nn.conv2d
constant
add
nn.relu
constant
nn.conv2d
constant
add
add
nn.relu
constant
nn.conv2d
constant
add
nn.relu
constant
nn.conv2d
constant
add
add
nn.relu
constant
nn.conv2d
constant
add
constant
nn.conv2d
constant
add
nn.relu
constant
nn.conv2d
constant
add
add
nn.relu
constant
nn.conv2d
constant
add
nn.relu
constant
nn.conv2d
constant
add
add
nn.relu
nn.global_avg_pool2d
nn.batch_flatten
constant
nn.dense
constant
add
data -> nn.conv2d
constant -> nn.conv2d
nn.conv2d -> add
constant -> add
add -> nn.relu
nn.relu -> nn.max_pool2d
nn.max_pool2d -> nn.conv2d
constant -> nn.conv2d
nn.conv2d -> add
constant -> add
add -> nn.relu
nn.relu -> nn.conv2d
constant -> nn.conv2d
nn.conv2d -> add
constant -> add
nn.max_pool2d -> add
add -> add
add -> nn.relu
nn.relu -> nn.conv2d
constant -> nn.conv2d
nn.conv2d -> add
constant -> add
add -> nn.relu
nn.relu -> nn.conv2d
constant -> nn.conv2d
nn.conv2d -> add
constant -> add
nn.relu -> add
add -> add
add -> nn.relu
nn.relu -> nn.conv2d
constant -> nn.conv2d
nn.conv2d -> add
constant -> add
nn.relu -> nn.conv2d
constant -> nn.conv2d
nn.conv2d -> add
constant -> add
add -> nn.relu
nn.relu -> nn.conv2d
constant -> nn.conv2d
nn.conv2d -> add
constant -> add
add -> add
add -> add
add -> nn.relu
nn.relu -> nn.conv2d
constant -> nn.conv2d
nn.conv2d -> add
constant -> add
add -> nn.relu
nn.relu -> nn.conv2d
constant -> nn.conv2d
nn.conv2d -> add
constant -> add
nn.relu -> add
add -> add
add -> nn.relu
nn.relu -> nn.conv2d
constant -> nn.conv2d
nn.conv2d -> add
constant -> add
nn.relu -> nn.conv2d
constant -> nn.conv2d
nn.conv2d -> add
constant -> add
add -> nn.relu
nn.relu -> nn.conv2d
constant -> nn.conv2d
nn.conv2d -> add
constant -> add
add -> add
add -> add
add -> nn.relu
nn.relu -> nn.conv2d
constant -> nn.conv2d
nn.conv2d -> add
constant -> add
add -> nn.relu
nn.relu -> nn.conv2d
constant -> nn.conv2d
nn.conv2d -> add
constant -> add
nn.relu -> add
add -> add
add -> nn.relu
nn.relu -> nn.conv2d
constant -> nn.conv2d
nn.conv2d -> add
constant -> add
nn.relu -> nn.conv2d
constant -> nn.conv2d
nn.conv2d -> add
constant -> add
add -> nn.relu
nn.relu -> nn.conv2d
constant -> nn.conv2d
nn.conv2d -> add
constant -> add
add -> add
add -> add
add -> nn.relu
nn.relu -> nn.conv2d
constant -> nn.conv2d
nn.conv2d -> add
constant -> add
add -> nn.relu
nn.relu -> nn.conv2d
constant -> nn.conv2d
nn.conv2d -> add
constant -> add
nn.relu -> add
add -> add
add -> nn.relu
nn.relu -> nn.global_avg_pool2d
nn.global_avg_pool2d -> nn.batch_flatten
nn.batch_flatten -> nn.dense
constant -> nn.dense
nn.dense -> add
constant -> add
analyzed condition
node_conds: [False, False, True, False, True, True, True, False, True, False, True, True, False, True, False, True, True, True, False, True, False, True, True, False, True, False, True, True, True, False, True, False, True, False, True, False, True, True, False, True, False, True, True, True, False, True, False, True, True, False, True, False, True, True, True, False, True, False, True, False, True, False, True, True, False, True, False, True, True, True, False, True, False, True, True, False, True, False, True, True, True, False, True, False, True, False, True, False, True, True, False, True, False, True, True, True, False, True, False, True, True, False, True, False, True, True, True, False, False, False, False, False, False]
edge_conds: [True, True, True, True, True, True, True, True, True, True, True, True, True, True, True, True, True, True, True, True, True, True, True, True, True, True, True, True, True, True, True, True, True, True, True, True, True, True, True, True, True, True, True, True, True, True, True, True, True, True, True, True, True, True, True, True, True, True, True, True, True, True, True, True, True, True, True, True, True, True, True, True, True, True, True, True, True, True, True, True, True, True, True, True, True, True, True, True, True, True, True, True, True, True, True, True, True, True, True, True, True, True, True, True, True, True, True, True, True, True, True, True, True, True, False, False, False, False, False, False]
bit limit
[8, 8, 32, 32, 32, 32, 8, 8, 32, 32, 32, 8, 8, 32, 32, 32, 32, 32, 8, 8, 32, 32, 32, 8, 8, 32, 32, 32, 32, 32, 8, 8, 32, 32, 8, 8, 32, 32, 32, 8, 8, 32, 32, 32, 32, 32, 8, 8, 32, 32, 32, 8, 8, 32, 32, 32, 32, 32, 8, 8, 32, 32, 8, 8, 32, 32, 32, 8, 8, 32, 32, 32, 32, 32, 8, 8, 32, 32, 32, 8, 8, 32, 32, 32, 32, 32, 8, 8, 32, 32, 8, 8, 32, 32, 32, 8, 8, 32, 32, 32, 32, 32, 8, 8, 32, 32, 32, 8, 8, 32, 32, 32, 32, 32]
--------
nn.conv2d[%2]: [32]
  data[%0] -> nn.conv2d[%2] : 8
  constant[%1] -> nn.conv2d[%2] : 8
--------
add[%4]: [32]
  nn.conv2d[%2] -> add[%4] : 32
  constant[%3] -> add[%4] : 32
--------
nn.relu[%5]: [32]
  add[%4] -> nn.relu[%5] : 32
--------
nn.max_pool2d[%6]: [8, 32]
  nn.relu[%5] -> nn.max_pool2d[%6] : 32
--------
nn.conv2d[%8]: [32]
  nn.max_pool2d[%6] -> nn.conv2d[%8] : 8
  constant[%7] -> nn.conv2d[%8] : 8
--------
add[%10]: [32]
  nn.conv2d[%8] -> add[%10] : 32
  constant[%9] -> add[%10] : 32
--------
nn.relu[%11]: [8]
  add[%10] -> nn.relu[%11] : 32
--------
nn.conv2d[%13]: [32]
  nn.relu[%11] -> nn.conv2d[%13] : 8
  constant[%12] -> nn.conv2d[%13] : 8
--------
add[%15]: [32]
  nn.conv2d[%13] -> add[%15] : 32
  constant[%14] -> add[%15] : 32
--------
add[%16]: [32]
  nn.max_pool2d[%6] -> add[%16] : 32
  add[%15] -> add[%16] : 32
--------
nn.relu[%17]: [8, 32]
  add[%16] -> nn.relu[%17] : 32
--------
nn.conv2d[%19]: [32]
  nn.relu[%17] -> nn.conv2d[%19] : 8
  constant[%18] -> nn.conv2d[%19] : 8
--------
add[%21]: [32]
  nn.conv2d[%19] -> add[%21] : 32
  constant[%20] -> add[%21] : 32
--------
nn.relu[%22]: [8]
  add[%21] -> nn.relu[%22] : 32
--------
nn.conv2d[%24]: [32]
  nn.relu[%22] -> nn.conv2d[%24] : 8
  constant[%23] -> nn.conv2d[%24] : 8
--------
add[%26]: [32]
  nn.conv2d[%24] -> add[%26] : 32
  constant[%25] -> add[%26] : 32
--------
add[%27]: [32]
  nn.relu[%17] -> add[%27] : 32
  add[%26] -> add[%27] : 32
--------
nn.relu[%28]: [8, 8]
  add[%27] -> nn.relu[%28] : 32
--------
nn.conv2d[%30]: [32]
  nn.relu[%28] -> nn.conv2d[%30] : 8
  constant[%29] -> nn.conv2d[%30] : 8
--------
add[%32]: [32]
  nn.conv2d[%30] -> add[%32] : 32
  constant[%31] -> add[%32] : 32
--------
nn.conv2d[%34]: [32]
  nn.relu[%28] -> nn.conv2d[%34] : 8
  constant[%33] -> nn.conv2d[%34] : 8
--------
add[%36]: [32]
  nn.conv2d[%34] -> add[%36] : 32
  constant[%35] -> add[%36] : 32
--------
nn.relu[%37]: [8]
  add[%36] -> nn.relu[%37] : 32
--------
nn.conv2d[%39]: [32]
  nn.relu[%37] -> nn.conv2d[%39] : 8
  constant[%38] -> nn.conv2d[%39] : 8
--------
add[%41]: [32]
  nn.conv2d[%39] -> add[%41] : 32
  constant[%40] -> add[%41] : 32
--------
add[%42]: [32]
  add[%32] -> add[%42] : 32
  add[%41] -> add[%42] : 32
--------
nn.relu[%43]: [8, 32]
  add[%42] -> nn.relu[%43] : 32
--------
nn.conv2d[%45]: [32]
  nn.relu[%43] -> nn.conv2d[%45] : 8
  constant[%44] -> nn.conv2d[%45] : 8
--------
add[%47]: [32]
  nn.conv2d[%45] -> add[%47] : 32
  constant[%46] -> add[%47] : 32
--------
nn.relu[%48]: [8]
  add[%47] -> nn.relu[%48] : 32
--------
nn.conv2d[%50]: [32]
  nn.relu[%48] -> nn.conv2d[%50] : 8
  constant[%49] -> nn.conv2d[%50] : 8
--------
add[%52]: [32]
  nn.conv2d[%50] -> add[%52] : 32
  constant[%51] -> add[%52] : 32
--------
add[%53]: [32]
  nn.relu[%43] -> add[%53] : 32
  add[%52] -> add[%53] : 32
--------
nn.relu[%54]: [8, 8]
  add[%53] -> nn.relu[%54] : 32
--------
nn.conv2d[%56]: [32]
  nn.relu[%54] -> nn.conv2d[%56] : 8
  constant[%55] -> nn.conv2d[%56] : 8
--------
add[%58]: [32]
  nn.conv2d[%56] -> add[%58] : 32
  constant[%57] -> add[%58] : 32
--------
nn.conv2d[%60]: [32]
  nn.relu[%54] -> nn.conv2d[%60] : 8
  constant[%59] -> nn.conv2d[%60] : 8
--------
add[%62]: [32]
  nn.conv2d[%60] -> add[%62] : 32
  constant[%61] -> add[%62] : 32
--------
nn.relu[%63]: [8]
  add[%62] -> nn.relu[%63] : 32
--------
nn.conv2d[%65]: [32]
  nn.relu[%63] -> nn.conv2d[%65] : 8
  constant[%64] -> nn.conv2d[%65] : 8
--------
add[%67]: [32]
  nn.conv2d[%65] -> add[%67] : 32
  constant[%66] -> add[%67] : 32
--------
add[%68]: [32]
  add[%58] -> add[%68] : 32
  add[%67] -> add[%68] : 32
--------
nn.relu[%69]: [8, 32]
  add[%68] -> nn.relu[%69] : 32
--------
nn.conv2d[%71]: [32]
  nn.relu[%69] -> nn.conv2d[%71] : 8
  constant[%70] -> nn.conv2d[%71] : 8
--------
add[%73]: [32]
  nn.conv2d[%71] -> add[%73] : 32
  constant[%72] -> add[%73] : 32
--------
nn.relu[%74]: [8]
  add[%73] -> nn.relu[%74] : 32
--------
nn.conv2d[%76]: [32]
  nn.relu[%74] -> nn.conv2d[%76] : 8
  constant[%75] -> nn.conv2d[%76] : 8
--------
add[%78]: [32]
  nn.conv2d[%76] -> add[%78] : 32
  constant[%77] -> add[%78] : 32
--------
add[%79]: [32]
  nn.relu[%69] -> add[%79] : 32
  add[%78] -> add[%79] : 32
--------
nn.relu[%80]: [8, 8]
  add[%79] -> nn.relu[%80] : 32
--------
nn.conv2d[%82]: [32]
  nn.relu[%80] -> nn.conv2d[%82] : 8
  constant[%81] -> nn.conv2d[%82] : 8
--------
add[%84]: [32]
  nn.conv2d[%82] -> add[%84] : 32
  constant[%83] -> add[%84] : 32
--------
nn.conv2d[%86]: [32]
  nn.relu[%80] -> nn.conv2d[%86] : 8
  constant[%85] -> nn.conv2d[%86] : 8
--------
add[%88]: [32]
  nn.conv2d[%86] -> add[%88] : 32
  constant[%87] -> add[%88] : 32
--------
nn.relu[%89]: [8]
  add[%88] -> nn.relu[%89] : 32
--------
nn.conv2d[%91]: [32]
  nn.relu[%89] -> nn.conv2d[%91] : 8
  constant[%90] -> nn.conv2d[%91] : 8
--------
add[%93]: [32]
  nn.conv2d[%91] -> add[%93] : 32
  constant[%92] -> add[%93] : 32
--------
add[%94]: [32]
  add[%84] -> add[%94] : 32
  add[%93] -> add[%94] : 32
--------
nn.relu[%95]: [8, 32]
  add[%94] -> nn.relu[%95] : 32
--------
nn.conv2d[%97]: [32]
  nn.relu[%95] -> nn.conv2d[%97] : 8
  constant[%96] -> nn.conv2d[%97] : 8
--------
add[%99]: [32]
  nn.conv2d[%97] -> add[%99] : 32
  constant[%98] -> add[%99] : 32
--------
nn.relu[%100]: [8]
  add[%99] -> nn.relu[%100] : 32
--------
nn.conv2d[%102]: [32]
  nn.relu[%100] -> nn.conv2d[%102] : 8
  constant[%101] -> nn.conv2d[%102] : 8
--------
add[%104]: [32]
  nn.conv2d[%102] -> add[%104] : 32
  constant[%103] -> add[%104] : 32
--------
add[%105]: [32]
  nn.relu[%95] -> add[%105] : 32
  add[%104] -> add[%105] : 32
--------
nn.relu[%106]: [None]
  add[%105] -> nn.relu[%106] : 32
--------
nn.global_avg_pool2d[%107]: [None]
  nn.relu[%106] -> nn.global_avg_pool2d[%107] : None
--------
nn.batch_flatten[%108]: [None]
  nn.global_avg_pool2d[%107] -> nn.batch_flatten[%108] : None
--------
nn.dense[%110]: [None]
  nn.batch_flatten[%108] -> nn.dense[%110] : None
  constant[%109] -> nn.dense[%110] : None
--------
add[%112]: []
  nn.dense[%110] -> add[%112] : None
  constant[%111] -> add[%112] : None
ops in graph:
{'nn.conv2d', 'nn.dense', 'nn.relu', 'nn.max_pool2d', 'nn.global_avg_pool2d', 'nn.batch_flatten', 'add'}
DEBUG:autotvm:Finish loading 688 records
INFO:compile_engine:Use implementation conv2d_nchw.cuda for op nn.conv2d
INFO:compile_engine:Use implementation injective.cuda for op add
INFO:compile_engine:Use implementation injective.cuda for op add
INFO:compile_engine:Use implementation injective.cuda for op nn.relu
INFO:compile_engine:Use implementation conv2d_nchw.cuda for op nn.conv2d
INFO:compile_engine:Use implementation injective.cuda for op add
INFO:compile_engine:Use implementation injective.cuda for op add
INFO:compile_engine:Use implementation injective.cuda for op nn.relu
INFO:compile_engine:Use implementation conv2d_nchw.cuda for op nn.conv2d
INFO:compile_engine:Use implementation injective.cuda for op add
INFO:compile_engine:Use implementation injective.cuda for op add
INFO:compile_engine:Use implementation injective.cuda for op nn.relu
INFO:compile_engine:Use implementation conv2d_nchw.cuda for op nn.conv2d
INFO:compile_engine:Use implementation injective.cuda for op add
INFO:compile_engine:Use implementation injective.cuda for op add
INFO:compile_engine:Use implementation injective.cuda for op nn.relu
INFO:compile_engine:Use implementation conv2d_nchw.cuda for op nn.conv2d
INFO:compile_engine:Use implementation injective.cuda for op add
INFO:compile_engine:Use implementation injective.cuda for op add
INFO:compile_engine:Use implementation injective.cuda for op nn.relu
INFO:compile_engine:Use implementation conv2d_nchw.cuda for op nn.conv2d
INFO:compile_engine:Use implementation injective.cuda for op add
INFO:compile_engine:Use implementation injective.cuda for op add
INFO:compile_engine:Use implementation injective.cuda for op nn.relu
INFO:compile_engine:Use implementation conv2d_nchw.cuda for op nn.conv2d
INFO:compile_engine:Use implementation injective.cuda for op add
INFO:compile_engine:Use implementation injective.cuda for op add
INFO:compile_engine:Use implementation injective.cuda for op nn.relu
INFO:compile_engine:Use implementation conv2d_nchw.cuda for op nn.conv2d
INFO:compile_engine:Use implementation injective.cuda for op add
INFO:compile_engine:Use implementation injective.cuda for op nn.relu
INFO:compile_engine:Use implementation conv2d_nchw.cuda for op nn.conv2d
INFO:compile_engine:Use implementation injective.cuda for op add
INFO:compile_engine:Use implementation injective.cuda for op nn.relu
INFO:compile_engine:Use implementation conv2d_nchw.cuda for op nn.conv2d
INFO:compile_engine:Use implementation injective.cuda for op add
INFO:compile_engine:Use implementation conv2d_nchw.cuda for op nn.conv2d
INFO:compile_engine:Use implementation injective.cuda for op add
INFO:compile_engine:Use implementation injective.cuda for op nn.relu
INFO:compile_engine:Use implementation conv2d_nchw.cuda for op nn.conv2d
INFO:compile_engine:Use implementation injective.cuda for op add
INFO:compile_engine:Use implementation injective.cuda for op nn.relu
INFO:compile_engine:Use implementation conv2d_nchw.cuda for op nn.conv2d
INFO:compile_engine:Use implementation injective.cuda for op add
INFO:compile_engine:Use implementation conv2d_nchw.cuda for op nn.conv2d
INFO:compile_engine:Use implementation injective.cuda for op add
INFO:compile_engine:Use implementation injective.cuda for op nn.relu
INFO:compile_engine:Use implementation conv2d_nchw.cuda for op nn.conv2d
INFO:compile_engine:Use implementation injective.cuda for op add
INFO:compile_engine:Use implementation injective.cuda for op nn.relu
INFO:compile_engine:Use implementation conv2d_nchw.cuda for op nn.conv2d
INFO:compile_engine:Use implementation injective.cuda for op add
INFO:compile_engine:Use implementation conv2d_nchw.cuda for op nn.conv2d
INFO:compile_engine:Use implementation injective.cuda for op add
INFO:compile_engine:Use implementation injective.cuda for op nn.relu
INFO:compile_engine:Use implementation conv2d_nchw.cuda for op nn.conv2d
INFO:compile_engine:Use implementation injective.cuda for op add
INFO:compile_engine:Use implementation injective.cuda for op nn.relu
original acc: 0.765625
data
constant
nn.conv2d
constant
add
nn.relu
nn.max_pool2d
constant
nn.conv2d
constant
add
nn.relu
constant
nn.conv2d
constant
add
add
nn.relu
constant
nn.conv2d
constant
add
nn.relu
constant
nn.conv2d
constant
add
add
nn.relu
constant
nn.conv2d
constant
add
constant
nn.conv2d
constant
add
nn.relu
constant
nn.conv2d
constant
add
add
nn.relu
constant
nn.conv2d
constant
add
nn.relu
constant
nn.conv2d
constant
add
add
nn.relu
constant
nn.conv2d
constant
add
constant
nn.conv2d
constant
add
nn.relu
constant
nn.conv2d
constant
add
add
nn.relu
constant
nn.conv2d
constant
add
nn.relu
constant
nn.conv2d
constant
add
add
nn.relu
constant
nn.conv2d
constant
add
constant
nn.conv2d
constant
add
nn.relu
constant
nn.conv2d
constant
add
add
nn.relu
constant
nn.conv2d
constant
add
nn.relu
constant
nn.conv2d
constant
add
add
nn.relu
nn.global_avg_pool2d
nn.batch_flatten
constant
nn.dense
constant
add
data -> nn.conv2d
constant -> nn.conv2d
nn.conv2d -> add
constant -> add
add -> nn.relu
nn.relu -> nn.max_pool2d
nn.max_pool2d -> nn.conv2d
constant -> nn.conv2d
nn.conv2d -> add
constant -> add
add -> nn.relu
nn.relu -> nn.conv2d
constant -> nn.conv2d
nn.conv2d -> add
constant -> add
nn.max_pool2d -> add
add -> add
add -> nn.relu
nn.relu -> nn.conv2d
constant -> nn.conv2d
nn.conv2d -> add
constant -> add
add -> nn.relu
nn.relu -> nn.conv2d
constant -> nn.conv2d
nn.conv2d -> add
constant -> add
nn.relu -> add
add -> add
add -> nn.relu
nn.relu -> nn.conv2d
constant -> nn.conv2d
nn.conv2d -> add
constant -> add
nn.relu -> nn.conv2d
constant -> nn.conv2d
nn.conv2d -> add
constant -> add
add -> nn.relu
nn.relu -> nn.conv2d
constant -> nn.conv2d
nn.conv2d -> add
constant -> add
add -> add
add -> add
add -> nn.relu
nn.relu -> nn.conv2d
constant -> nn.conv2d
nn.conv2d -> add
constant -> add
add -> nn.relu
nn.relu -> nn.conv2d
constant -> nn.conv2d
nn.conv2d -> add
constant -> add
nn.relu -> add
add -> add
add -> nn.relu
nn.relu -> nn.conv2d
constant -> nn.conv2d
nn.conv2d -> add
constant -> add
nn.relu -> nn.conv2d
constant -> nn.conv2d
nn.conv2d -> add
constant -> add
add -> nn.relu
nn.relu -> nn.conv2d
constant -> nn.conv2d
nn.conv2d -> add
constant -> add
add -> add
add -> add
add -> nn.relu
nn.relu -> nn.conv2d
constant -> nn.conv2d
nn.conv2d -> add
constant -> add
add -> nn.relu
nn.relu -> nn.conv2d
constant -> nn.conv2d
nn.conv2d -> add
constant -> add
nn.relu -> add
add -> add
add -> nn.relu
nn.relu -> nn.conv2d
constant -> nn.conv2d
nn.conv2d -> add
constant -> add
nn.relu -> nn.conv2d
constant -> nn.conv2d
nn.conv2d -> add
constant -> add
add -> nn.relu
nn.relu -> nn.conv2d
constant -> nn.conv2d
nn.conv2d -> add
constant -> add
add -> add
add -> add
add -> nn.relu
nn.relu -> nn.conv2d
constant -> nn.conv2d
nn.conv2d -> add
constant -> add
add -> nn.relu
nn.relu -> nn.conv2d
constant -> nn.conv2d
nn.conv2d -> add
constant -> add
nn.relu -> add
add -> add
add -> nn.relu
nn.relu -> nn.global_avg_pool2d
nn.global_avg_pool2d -> nn.batch_flatten
nn.batch_flatten -> nn.dense
constant -> nn.dense
nn.dense -> add
constant -> add
analyzed condition
node_conds: [False, False, True, False, True, True, True, False, True, False, True, True, False, True, False, True, True, True, False, True, False, True, True, False, True, False, True, True, True, False, True, False, True, False, True, False, True, True, False, True, False, True, True, True, False, True, False, True, True, False, True, False, True, True, True, False, True, False, True, False, True, False, True, True, False, True, False, True, True, True, False, True, False, True, True, False, True, False, True, True, True, False, True, False, True, False, True, False, True, True, False, True, False, True, True, True, False, True, False, True, True, False, True, False, True, True, True, False, False, False, False, False, False]
edge_conds: [True, True, True, True, True, True, True, True, True, True, True, True, True, True, True, True, True, True, True, True, True, True, True, True, True, True, True, True, True, True, True, True, True, True, True, True, True, True, True, True, True, True, True, True, True, True, True, True, True, True, True, True, True, True, True, True, True, True, True, True, True, True, True, True, True, True, True, True, True, True, True, True, True, True, True, True, True, True, True, True, True, True, True, True, True, True, True, True, True, True, True, True, True, True, True, True, True, True, True, True, True, True, True, True, True, True, True, True, True, True, True, True, True, True, False, False, False, False, False, False]
INFO:root:collecting statistics for calibration...
DEBUG:autotvm:Finish loading 688 records
INFO:compile_engine:Use implementation conv2d_nchw.cuda for op nn.conv2d
INFO:compile_engine:Use implementation injective.cuda for op add
INFO:compile_engine:Use implementation injective.cuda for op nn.relu
INFO:compile_engine:Use implementation conv2d_nchw.cuda for op nn.conv2d
INFO:compile_engine:Use implementation injective.cuda for op add
INFO:compile_engine:Use implementation injective.cuda for op nn.relu
INFO:compile_engine:Use implementation injective.cuda for op add
INFO:compile_engine:Use implementation conv2d_nchw.cuda for op nn.conv2d
INFO:compile_engine:Use implementation injective.cuda for op add
INFO:compile_engine:Use implementation conv2d_nchw.cuda for op nn.conv2d
INFO:compile_engine:Use implementation injective.cuda for op nn.relu
INFO:compile_engine:Use implementation conv2d_nchw.cuda for op nn.conv2d
INFO:compile_engine:Use implementation injective.cuda for op add
INFO:compile_engine:Use implementation conv2d_nchw.cuda for op nn.conv2d
INFO:compile_engine:Use implementation injective.cuda for op add
INFO:compile_engine:Use implementation conv2d_nchw.cuda for op nn.conv2d
INFO:compile_engine:Use implementation injective.cuda for op nn.relu
INFO:compile_engine:Use implementation conv2d_nchw.cuda for op nn.conv2d
INFO:compile_engine:Use implementation injective.cuda for op add
INFO:compile_engine:Use implementation conv2d_nchw.cuda for op nn.conv2d
INFO:compile_engine:Use implementation injective.cuda for op add
INFO:compile_engine:Use implementation conv2d_nchw.cuda for op nn.conv2d
INFO:compile_engine:Use implementation injective.cuda for op nn.relu
INFO:compile_engine:Use implementation conv2d_nchw.cuda for op nn.conv2d
INFO:compile_engine:Use implementation injective.cuda for op add
INFO:compile_engine:Use implementation dense_tensorcore.cuda for op nn.dense
INFO:compile_engine:Use implementation injective.cuda for op add
INFO:root:statistics collected

select descriptor
---------
nn.conv2d[%2]
  in bits: [8, 8]
  OpDesc[in_dtypes=int8, out_dtypes=int32]
---------
add[%4]
  in bits: [32, 32]
  OpDesc[in_dtypes=int32, out_dtypes=int32]
---------
nn.relu[%5]
  in bits: [32]
  OpDesc[in_dtypes=int32, out_dtypes=int32]
---------
nn.max_pool2d[%6]
  in bits: [32]
  OpDesc[in_dtypes=int32, out_dtypes=int32]
---------
nn.conv2d[%8]
  in bits: [8, 8]
  OpDesc[in_dtypes=int8, out_dtypes=int32]
---------
add[%10]
  in bits: [32, 32]
  OpDesc[in_dtypes=int32, out_dtypes=int32]
---------
nn.relu[%11]
  in bits: [32]
  OpDesc[in_dtypes=int32, out_dtypes=int32]
---------
nn.conv2d[%13]
  in bits: [8, 8]
  OpDesc[in_dtypes=int8, out_dtypes=int32]
---------
add[%15]
  in bits: [32, 32]
  OpDesc[in_dtypes=int32, out_dtypes=int32]
---------
add[%16]
  in bits: [32, 32]
  OpDesc[in_dtypes=int32, out_dtypes=int32]
---------
nn.relu[%17]
  in bits: [32]
  OpDesc[in_dtypes=int32, out_dtypes=int32]
---------
nn.conv2d[%19]
  in bits: [8, 8]
  OpDesc[in_dtypes=int8, out_dtypes=int32]
---------
add[%21]
  in bits: [32, 32]
  OpDesc[in_dtypes=int32, out_dtypes=int32]
---------
nn.relu[%22]
  in bits: [32]
  OpDesc[in_dtypes=int32, out_dtypes=int32]
---------
nn.conv2d[%24]
  in bits: [8, 8]
  OpDesc[in_dtypes=int8, out_dtypes=int32]
---------
add[%26]
  in bits: [32, 32]
  OpDesc[in_dtypes=int32, out_dtypes=int32]
---------
add[%27]
  in bits: [32, 32]
  OpDesc[in_dtypes=int32, out_dtypes=int32]
---------
nn.relu[%28]
  in bits: [32]
  OpDesc[in_dtypes=int32, out_dtypes=int32]
---------
nn.conv2d[%30]
  in bits: [8, 8]
  OpDesc[in_dtypes=int8, out_dtypes=int32]
---------
add[%32]
  in bits: [32, 32]
  OpDesc[in_dtypes=int32, out_dtypes=int32]
---------
nn.conv2d[%34]
  in bits: [8, 8]
  OpDesc[in_dtypes=int8, out_dtypes=int32]
---------
add[%36]
  in bits: [32, 32]
  OpDesc[in_dtypes=int32, out_dtypes=int32]
---------
nn.relu[%37]
  in bits: [32]
  OpDesc[in_dtypes=int32, out_dtypes=int32]
---------
nn.conv2d[%39]
  in bits: [8, 8]
  OpDesc[in_dtypes=int8, out_dtypes=int32]
---------
add[%41]
  in bits: [32, 32]
  OpDesc[in_dtypes=int32, out_dtypes=int32]
---------
add[%42]
  in bits: [32, 32]
  OpDesc[in_dtypes=int32, out_dtypes=int32]
---------
nn.relu[%43]
  in bits: [32]
  OpDesc[in_dtypes=int32, out_dtypes=int32]
---------
nn.conv2d[%45]
  in bits: [8, 8]
  OpDesc[in_dtypes=int8, out_dtypes=int32]
---------
add[%47]
  in bits: [32, 32]
  OpDesc[in_dtypes=int32, out_dtypes=int32]
---------
nn.relu[%48]
  in bits: [32]
  OpDesc[in_dtypes=int32, out_dtypes=int32]
---------
nn.conv2d[%50]
  in bits: [8, 8]
  OpDesc[in_dtypes=int8, out_dtypes=int32]
---------
add[%52]
  in bits: [32, 32]
  OpDesc[in_dtypes=int32, out_dtypes=int32]
---------
add[%53]
  in bits: [32, 32]
  OpDesc[in_dtypes=int32, out_dtypes=int32]
---------
nn.relu[%54]
  in bits: [32]
  OpDesc[in_dtypes=int32, out_dtypes=int32]
---------
nn.conv2d[%56]
  in bits: [8, 8]
  OpDesc[in_dtypes=int8, out_dtypes=int32]
---------
add[%58]
  in bits: [32, 32]
  OpDesc[in_dtypes=int32, out_dtypes=int32]
---------
nn.conv2d[%60]
  in bits: [8, 8]
  OpDesc[in_dtypes=int8, out_dtypes=int32]
---------
add[%62]
  in bits: [32, 32]
  OpDesc[in_dtypes=int32, out_dtypes=int32]
---------
nn.relu[%63]
  in bits: [32]
  OpDesc[in_dtypes=int32, out_dtypes=int32]
---------
nn.conv2d[%65]
  in bits: [8, 8]
  OpDesc[in_dtypes=int8, out_dtypes=int32]
---------
add[%67]
  in bits: [32, 32]
  OpDesc[in_dtypes=int32, out_dtypes=int32]
---------
add[%68]
  in bits: [32, 32]
  OpDesc[in_dtypes=int32, out_dtypes=int32]
---------
nn.relu[%69]
  in bits: [32]
  OpDesc[in_dtypes=int32, out_dtypes=int32]
---------
nn.conv2d[%71]
  in bits: [8, 8]
  OpDesc[in_dtypes=int8, out_dtypes=int32]
---------
add[%73]
  in bits: [32, 32]
  OpDesc[in_dtypes=int32, out_dtypes=int32]
---------
nn.relu[%74]
  in bits: [32]
  OpDesc[in_dtypes=int32, out_dtypes=int32]
---------
nn.conv2d[%76]
  in bits: [8, 8]
  OpDesc[in_dtypes=int8, out_dtypes=int32]
---------
add[%78]
  in bits: [32, 32]
  OpDesc[in_dtypes=int32, out_dtypes=int32]
---------
add[%79]
  in bits: [32, 32]
  OpDesc[in_dtypes=int32, out_dtypes=int32]
---------
nn.relu[%80]
  in bits: [32]
  OpDesc[in_dtypes=int32, out_dtypes=int32]
---------
nn.conv2d[%82]
  in bits: [8, 8]
  OpDesc[in_dtypes=int8, out_dtypes=int32]
---------
add[%84]
  in bits: [32, 32]
  OpDesc[in_dtypes=int32, out_dtypes=int32]
---------
nn.conv2d[%86]
  in bits: [8, 8]
  OpDesc[in_dtypes=int8, out_dtypes=int32]
---------
add[%88]
  in bits: [32, 32]
  OpDesc[in_dtypes=int32, out_dtypes=int32]
---------
nn.relu[%89]
  in bits: [32]
  OpDesc[in_dtypes=int32, out_dtypes=int32]
---------
nn.conv2d[%91]
  in bits: [8, 8]
  OpDesc[in_dtypes=int8, out_dtypes=int32]
---------
add[%93]
  in bits: [32, 32]
  OpDesc[in_dtypes=int32, out_dtypes=int32]
---------
add[%94]
  in bits: [32, 32]
  OpDesc[in_dtypes=int32, out_dtypes=int32]
---------
nn.relu[%95]
  in bits: [32]
  OpDesc[in_dtypes=int32, out_dtypes=int32]
---------
nn.conv2d[%97]
  in bits: [8, 8]
  OpDesc[in_dtypes=int8, out_dtypes=int32]
---------
add[%99]
  in bits: [32, 32]
  OpDesc[in_dtypes=int32, out_dtypes=int32]
---------
nn.relu[%100]
  in bits: [32]
  OpDesc[in_dtypes=int32, out_dtypes=int32]
---------
nn.conv2d[%102]
  in bits: [8, 8]
  OpDesc[in_dtypes=int8, out_dtypes=int32]
---------
add[%104]
  in bits: [32, 32]
  OpDesc[in_dtypes=int32, out_dtypes=int32]
---------
add[%105]
  in bits: [32, 32]
  OpDesc[in_dtypes=int32, out_dtypes=int32]
---------
nn.relu[%106]
  in bits: [32]
  OpDesc[in_dtypes=int32, out_dtypes=int32]
fn (%data: Tensor[(32, 3, 224, 224), float32]) -> Tensor[(32, 1000), float32] {
  %0 = nn.conv2d(%data, meta[relay.Constant][0] /* ty=Tensor[(64, 3, 7, 7), float32] */ /* ty=Tensor[(64, 3, 7, 7), float32] */, strides=[2, 2], padding=[3, 3, 3, 3], channels=64, kernel_size=[7, 7]) /* ty=Tensor[(32, 64, 112, 112), float32] */;
  %1 = add(%0, meta[relay.Constant][1] /* ty=Tensor[(64, 1, 1), float32] */ /* ty=Tensor[(64, 1, 1), float32] */) /* ty=Tensor[(32, 64, 112, 112), float32] */;
  %2 = nn.relu(%1) /* ty=Tensor[(32, 64, 112, 112), float32] */;
  %3 = nn.max_pool2d(%2, pool_size=[3, 3], strides=[2, 2], padding=[1, 1, 1, 1]) /* ty=Tensor[(32, 64, 56, 56), float32] */;
  %4 = nn.conv2d(%3, meta[relay.Constant][2] /* ty=Tensor[(64, 64, 3, 3), float32] */ /* ty=Tensor[(64, 64, 3, 3), float32] */, padding=[1, 1, 1, 1], channels=64, kernel_size=[3, 3]) /* ty=Tensor[(32, 64, 56, 56), float32] */;
  %5 = add(%4, meta[relay.Constant][3] /* ty=Tensor[(64, 1, 1), float32] */ /* ty=Tensor[(64, 1, 1), float32] */) /* ty=Tensor[(32, 64, 56, 56), float32] */;
  %6 = nn.relu(%5) /* ty=Tensor[(32, 64, 56, 56), float32] */;
  %7 = nn.conv2d(%6, meta[relay.Constant][4] /* ty=Tensor[(64, 64, 3, 3), float32] */ /* ty=Tensor[(64, 64, 3, 3), float32] */, padding=[1, 1, 1, 1], channels=64, kernel_size=[3, 3]) /* ty=Tensor[(32, 64, 56, 56), float32] */;
  %8 = add(%7, meta[relay.Constant][5] /* ty=Tensor[(64, 1, 1), float32] */ /* ty=Tensor[(64, 1, 1), float32] */) /* ty=Tensor[(32, 64, 56, 56), float32] */;
  %9 = add(%3, %8) /* ty=Tensor[(32, 64, 56, 56), float32] */;
  %10 = nn.relu(%9) /* ty=Tensor[(32, 64, 56, 56), float32] */;
  %11 = nn.conv2d(%10, meta[relay.Constant][6] /* ty=Tensor[(64, 64, 3, 3), float32] */ /* ty=Tensor[(64, 64, 3, 3), float32] */, padding=[1, 1, 1, 1], channels=64, kernel_size=[3, 3]) /* ty=Tensor[(32, 64, 56, 56), float32] */;
  %12 = add(%11, meta[relay.Constant][7] /* ty=Tensor[(64, 1, 1), float32] */ /* ty=Tensor[(64, 1, 1), float32] */) /* ty=Tensor[(32, 64, 56, 56), float32] */;
  %13 = nn.relu(%12) /* ty=Tensor[(32, 64, 56, 56), float32] */;
  %14 = nn.conv2d(%13, meta[relay.Constant][8] /* ty=Tensor[(64, 64, 3, 3), float32] */ /* ty=Tensor[(64, 64, 3, 3), float32] */, padding=[1, 1, 1, 1], channels=64, kernel_size=[3, 3]) /* ty=Tensor[(32, 64, 56, 56), float32] */;
  %15 = add(%14, meta[relay.Constant][9] /* ty=Tensor[(64, 1, 1), float32] */ /* ty=Tensor[(64, 1, 1), float32] */) /* ty=Tensor[(32, 64, 56, 56), float32] */;
  %16 = add(%10, %15) /* ty=Tensor[(32, 64, 56, 56), float32] */;
  %17 = nn.relu(%16) /* ty=Tensor[(32, 64, 56, 56), float32] */;
  %18 = nn.conv2d(%17, meta[relay.Constant][10] /* ty=Tensor[(128, 64, 1, 1), float32] */ /* ty=Tensor[(128, 64, 1, 1), float32] */, strides=[2, 2], padding=[0, 0, 0, 0], channels=128, kernel_size=[1, 1]) /* ty=Tensor[(32, 128, 28, 28), float32] */;
  %19 = add(%18, meta[relay.Constant][11] /* ty=Tensor[(128, 1, 1), float32] */ /* ty=Tensor[(128, 1, 1), float32] */) /* ty=Tensor[(32, 128, 28, 28), float32] */;
  %20 = nn.conv2d(%17, meta[relay.Constant][12] /* ty=Tensor[(128, 64, 3, 3), float32] */ /* ty=Tensor[(128, 64, 3, 3), float32] */, strides=[2, 2], padding=[1, 1, 1, 1], channels=128, kernel_size=[3, 3]) /* ty=Tensor[(32, 128, 28, 28), float32] */;
  %21 = add(%20, meta[relay.Constant][13] /* ty=Tensor[(128, 1, 1), float32] */ /* ty=Tensor[(128, 1, 1), float32] */) /* ty=Tensor[(32, 128, 28, 28), float32] */;
  %22 = nn.relu(%21) /* ty=Tensor[(32, 128, 28, 28), float32] */;
  %23 = nn.conv2d(%22, meta[relay.Constant][14] /* ty=Tensor[(128, 128, 3, 3), float32] */ /* ty=Tensor[(128, 128, 3, 3), float32] */, padding=[1, 1, 1, 1], channels=128, kernel_size=[3, 3]) /* ty=Tensor[(32, 128, 28, 28), float32] */;
  %24 = add(%23, meta[relay.Constant][15] /* ty=Tensor[(128, 1, 1), float32] */ /* ty=Tensor[(128, 1, 1), float32] */) /* ty=Tensor[(32, 128, 28, 28), float32] */;
  %25 = add(%19, %24) /* ty=Tensor[(32, 128, 28, 28), float32] */;
  %26 = nn.relu(%25) /* ty=Tensor[(32, 128, 28, 28), float32] */;
  %27 = nn.conv2d(%26, meta[relay.Constant][16] /* ty=Tensor[(128, 128, 3, 3), float32] */ /* ty=Tensor[(128, 128, 3, 3), float32] */, padding=[1, 1, 1, 1], channels=128, kernel_size=[3, 3]) /* ty=Tensor[(32, 128, 28, 28), float32] */;
  %28 = add(%27, meta[relay.Constant][17] /* ty=Tensor[(128, 1, 1), float32] */ /* ty=Tensor[(128, 1, 1), float32] */) /* ty=Tensor[(32, 128, 28, 28), float32] */;
  %29 = nn.relu(%28) /* ty=Tensor[(32, 128, 28, 28), float32] */;
  %30 = nn.conv2d(%29, meta[relay.Constant][18] /* ty=Tensor[(128, 128, 3, 3), float32] */ /* ty=Tensor[(128, 128, 3, 3), float32] */, padding=[1, 1, 1, 1], channels=128, kernel_size=[3, 3]) /* ty=Tensor[(32, 128, 28, 28), float32] */;
  %31 = add(%30, meta[relay.Constant][19] /* ty=Tensor[(128, 1, 1), float32] */ /* ty=Tensor[(128, 1, 1), float32] */) /* ty=Tensor[(32, 128, 28, 28), float32] */;
  %32 = add(%26, %31) /* ty=Tensor[(32, 128, 28, 28), float32] */;
  %33 = nn.relu(%32) /* ty=Tensor[(32, 128, 28, 28), float32] */;
  %34 = nn.conv2d(%33, meta[relay.Constant][20] /* ty=Tensor[(256, 128, 1, 1), float32] */ /* ty=Tensor[(256, 128, 1, 1), float32] */, strides=[2, 2], padding=[0, 0, 0, 0], channels=256, kernel_size=[1, 1]) /* ty=Tensor[(32, 256, 14, 14), float32] */;
  %35 = add(%34, meta[relay.Constant][21] /* ty=Tensor[(256, 1, 1), float32] */ /* ty=Tensor[(256, 1, 1), float32] */) /* ty=Tensor[(32, 256, 14, 14), float32] */;
  %36 = nn.conv2d(%33, meta[relay.Constant][22] /* ty=Tensor[(256, 128, 3, 3), float32] */ /* ty=Tensor[(256, 128, 3, 3), float32] */, strides=[2, 2], padding=[1, 1, 1, 1], channels=256, kernel_size=[3, 3]) /* ty=Tensor[(32, 256, 14, 14), float32] */;
  %37 = add(%36, meta[relay.Constant][23] /* ty=Tensor[(256, 1, 1), float32] */ /* ty=Tensor[(256, 1, 1), float32] */) /* ty=Tensor[(32, 256, 14, 14), float32] */;
  %38 = nn.relu(%37) /* ty=Tensor[(32, 256, 14, 14), float32] */;
  %39 = nn.conv2d(%38, meta[relay.Constant][24] /* ty=Tensor[(256, 256, 3, 3), float32] */ /* ty=Tensor[(256, 256, 3, 3), float32] */, padding=[1, 1, 1, 1], channels=256, kernel_size=[3, 3]) /* ty=Tensor[(32, 256, 14, 14), float32] */;
  %40 = add(%39, meta[relay.Constant][25] /* ty=Tensor[(256, 1, 1), float32] */ /* ty=Tensor[(256, 1, 1), float32] */) /* ty=Tensor[(32, 256, 14, 14), float32] */;
  %41 = add(%35, %40) /* ty=Tensor[(32, 256, 14, 14), float32] */;
  %42 = nn.relu(%41) /* ty=Tensor[(32, 256, 14, 14), float32] */;
  %43 = nn.conv2d(%42, meta[relay.Constant][26] /* ty=Tensor[(256, 256, 3, 3), float32] */ /* ty=Tensor[(256, 256, 3, 3), float32] */, padding=[1, 1, 1, 1], channels=256, kernel_size=[3, 3]) /* ty=Tensor[(32, 256, 14, 14), float32] */;
  %44 = add(%43, meta[relay.Constant][27] /* ty=Tensor[(256, 1, 1), float32] */ /* ty=Tensor[(256, 1, 1), float32] */) /* ty=Tensor[(32, 256, 14, 14), float32] */;
  %45 = nn.relu(%44) /* ty=Tensor[(32, 256, 14, 14), float32] */;
  %46 = nn.conv2d(%45, meta[relay.Constant][28] /* ty=Tensor[(256, 256, 3, 3), float32] */ /* ty=Tensor[(256, 256, 3, 3), float32] */, padding=[1, 1, 1, 1], channels=256, kernel_size=[3, 3]) /* ty=Tensor[(32, 256, 14, 14), float32] */;
  %47 = add(%46, meta[relay.Constant][29] /* ty=Tensor[(256, 1, 1), float32] */ /* ty=Tensor[(256, 1, 1), float32] */) /* ty=Tensor[(32, 256, 14, 14), float32] */;
  %48 = add(%42, %47) /* ty=Tensor[(32, 256, 14, 14), float32] */;
  %49 = nn.relu(%48) /* ty=Tensor[(32, 256, 14, 14), float32] */;
  %50 = nn.conv2d(%49, meta[relay.Constant][30] /* ty=Tensor[(512, 256, 1, 1), float32] */ /* ty=Tensor[(512, 256, 1, 1), float32] */, strides=[2, 2], padding=[0, 0, 0, 0], channels=512, kernel_size=[1, 1]) /* ty=Tensor[(32, 512, 7, 7), float32] */;
  %51 = add(%50, meta[relay.Constant][31] /* ty=Tensor[(512, 1, 1), float32] */ /* ty=Tensor[(512, 1, 1), float32] */) /* ty=Tensor[(32, 512, 7, 7), float32] */;
  %52 = nn.conv2d(%49, meta[relay.Constant][32] /* ty=Tensor[(512, 256, 3, 3), float32] */ /* ty=Tensor[(512, 256, 3, 3), float32] */, strides=[2, 2], padding=[1, 1, 1, 1], channels=512, kernel_size=[3, 3]) /* ty=Tensor[(32, 512, 7, 7), float32] */;
  %53 = add(%52, meta[relay.Constant][33] /* ty=Tensor[(512, 1, 1), float32] */ /* ty=Tensor[(512, 1, 1), float32] */) /* ty=Tensor[(32, 512, 7, 7), float32] */;
  %54 = nn.relu(%53) /* ty=Tensor[(32, 512, 7, 7), float32] */;
  %55 = nn.conv2d(%54, meta[relay.Constant][34] /* ty=Tensor[(512, 512, 3, 3), float32] */ /* ty=Tensor[(512, 512, 3, 3), float32] */, padding=[1, 1, 1, 1], channels=512, kernel_size=[3, 3]) /* ty=Tensor[(32, 512, 7, 7), float32] */;
  %56 = add(%55, meta[relay.Constant][35] /* ty=Tensor[(512, 1, 1), float32] */ /* ty=Tensor[(512, 1, 1), float32] */) /* ty=Tensor[(32, 512, 7, 7), float32] */;
  %57 = add(%51, %56) /* ty=Tensor[(32, 512, 7, 7), float32] */;
  %58 = nn.relu(%57) /* ty=Tensor[(32, 512, 7, 7), float32] */;
  %59 = nn.conv2d(%58, meta[relay.Constant][36] /* ty=Tensor[(512, 512, 3, 3), float32] */ /* ty=Tensor[(512, 512, 3, 3), float32] */, padding=[1, 1, 1, 1], channels=512, kernel_size=[3, 3]) /* ty=Tensor[(32, 512, 7, 7), float32] */;
  %60 = add(%59, meta[relay.Constant][37] /* ty=Tensor[(512, 1, 1), float32] */ /* ty=Tensor[(512, 1, 1), float32] */) /* ty=Tensor[(32, 512, 7, 7), float32] */;
  %61 = nn.relu(%60) /* ty=Tensor[(32, 512, 7, 7), float32] */;
  %62 = nn.conv2d(%61, meta[relay.Constant][38] /* ty=Tensor[(512, 512, 3, 3), float32] */ /* ty=Tensor[(512, 512, 3, 3), float32] */, padding=[1, 1, 1, 1], channels=512, kernel_size=[3, 3]) /* ty=Tensor[(32, 512, 7, 7), float32] */;
  %63 = add(%62, meta[relay.Constant][39] /* ty=Tensor[(512, 1, 1), float32] */ /* ty=Tensor[(512, 1, 1), float32] */) /* ty=Tensor[(32, 512, 7, 7), float32] */;
  %64 = add(%58, %63) /* ty=Tensor[(32, 512, 7, 7), float32] */;
  %65 = nn.relu(%64) /* ty=Tensor[(32, 512, 7, 7), float32] */;
  %66 = nn.global_avg_pool2d(%65) /* ty=Tensor[(32, 512, 1, 1), float32] */;
  %67 = nn.batch_flatten(%66) /* ty=Tensor[(32, 512), float32] */;
  %68 = nn.dense(%67, meta[relay.Constant][40] /* ty=Tensor[(1000, 512), float32] */ /* ty=Tensor[(1000, 512), float32] */, units=1000) /* ty=Tensor[(32, 1000), float32] */;
  add(%68, meta[relay.Constant][41] /* ty=Tensor[(1000), float32] */ /* ty=Tensor[(1000), float32] */) /* ty=Tensor[(32, 1000), float32] */
}
// meta data omitted. you can use show_meta_data=True to include meta data
Simulated graph fn (%data: Tensor[(32, 3, 224, 224), float32], %in_scale0: float32, %out_scale0: float32, %clip_min0: float32, %clip_max0: float32, %in_scale1: float32, %out_scale1: float32, %clip_min1: float32, %clip_max1: float32, %in_scale2: float32, %out_scale2: float32, %clip_min2: float32, %clip_max2: float32, %in_scale3: float32, %out_scale3: float32, %clip_min3: float32, %clip_max3: float32, %in_scale4: float32, %out_scale4: float32, %clip_min4: float32, %clip_max4: float32, %in_scale5: float32, %out_scale5: float32, %clip_min5: float32, %clip_max5: float32, %in_scale15: float32, %out_scale15: float32, %clip_min15: float32, %clip_max15: float32, %in_scale6: float32, %out_scale6: float32, %clip_min6: float32, %clip_max6: float32, %in_scale7: float32, %out_scale7: float32, %clip_min7: float32, %clip_max7: float32, %in_scale8: float32, %out_scale8: float32, %clip_min8: float32, %clip_max8: float32, %in_scale9: float32, %out_scale9: float32, %clip_min9: float32, %clip_max9: float32, %in_scale10: float32, %out_scale10: float32, %clip_min10: float32, %clip_max10: float32, %in_scale11: float32, %out_scale11: float32, %clip_min11: float32, %clip_max11: float32, %in_scale12: float32, %out_scale12: float32, %clip_min12: float32, %clip_max12: float32, %in_scale13: float32, %out_scale13: float32, %clip_min13: float32, %clip_max13: float32, %in_scale14: float32, %out_scale14: float32, %clip_min14: float32, %clip_max14: float32, %in_scale16: float32, %out_scale16: float32, %clip_min16: float32, %clip_max16: float32, %in_scale17: float32, %out_scale17: float32, %clip_min17: float32, %clip_max17: float32, %in_scale27: float32, %out_scale27: float32, %clip_min27: float32, %clip_max27: float32, %in_scale18: float32, %out_scale18: float32, %clip_min18: float32, %clip_max18: float32, %in_scale19: float32, %out_scale19: float32, %clip_min19: float32, %clip_max19: float32, %in_scale20: float32, %out_scale20: float32, %clip_min20: float32, %clip_max20: float32, %in_scale21: float32, %out_scale21: float32, %clip_min21: float32, %clip_max21: float32, %in_scale22: float32, %out_scale22: float32, %clip_min22: float32, %clip_max22: float32, %in_scale23: float32, %out_scale23: float32, %clip_min23: float32, %clip_max23: float32, %in_scale24: float32, %out_scale24: float32, %clip_min24: float32, %clip_max24: float32, %in_scale25: float32, %out_scale25: float32, %clip_min25: float32, %clip_max25: float32, %in_scale26: float32, %out_scale26: float32, %clip_min26: float32, %clip_max26: float32, %in_scale28: float32, %out_scale28: float32, %clip_min28: float32, %clip_max28: float32, %in_scale29: float32, %out_scale29: float32, %clip_min29: float32, %clip_max29: float32, %in_scale30: float32, %out_scale30: float32, %clip_min30: float32, %clip_max30: float32, %in_scale31: float32, %out_scale31: float32, %clip_min31: float32, %clip_max31: float32, %in_scale32: float32, %out_scale32: float32, %clip_min32: float32, %clip_max32: float32, %in_scale33: float32, %out_scale33: float32, %clip_min33: float32, %clip_max33: float32, %in_scale43: float32, %out_scale43: float32, %clip_min43: float32, %clip_max43: float32, %in_scale34: float32, %out_scale34: float32, %clip_min34: float32, %clip_max34: float32, %in_scale35: float32, %out_scale35: float32, %clip_min35: float32, %clip_max35: float32, %in_scale36: float32, %out_scale36: float32, %clip_min36: float32, %clip_max36: float32, %in_scale37: float32, %out_scale37: float32, %clip_min37: float32, %clip_max37: float32, %in_scale38: float32, %out_scale38: float32, %clip_min38: float32, %clip_max38: float32, %in_scale39: float32, %out_scale39: float32, %clip_min39: float32, %clip_max39: float32, %in_scale40: float32, %out_scale40: float32, %clip_min40: float32, %clip_max40: float32, %in_scale41: float32, %out_scale41: float32, %clip_min41: float32, %clip_max41: float32, %in_scale42: float32, %out_scale42: float32, %clip_min42: float32, %clip_max42: float32, %in_scale44: float32, %out_scale44: float32, %clip_min44: float32, %clip_max44: float32, %in_scale45: float32, %out_scale45: float32, %clip_min45: float32, %clip_max45: float32, %in_scale55: float32, %out_scale55: float32, %clip_min55: float32, %clip_max55: float32, %in_scale46: float32, %out_scale46: float32, %clip_min46: float32, %clip_max46: float32, %in_scale47: float32, %out_scale47: float32, %clip_min47: float32, %clip_max47: float32, %in_scale48: float32, %out_scale48: float32, %clip_min48: float32, %clip_max48: float32, %in_scale49: float32, %out_scale49: float32, %clip_min49: float32, %clip_max49: float32, %in_scale50: float32, %out_scale50: float32, %clip_min50: float32, %clip_max50: float32, %in_scale51: float32, %out_scale51: float32, %clip_min51: float32, %clip_max51: float32, %in_scale52: float32, %out_scale52: float32, %clip_min52: float32, %clip_max52: float32, %in_scale53: float32, %out_scale53: float32, %clip_min53: float32, %clip_max53: float32, %in_scale54: float32, %out_scale54: float32, %clip_min54: float32, %clip_max54: float32, %in_scale56: float32, %out_scale56: float32, %clip_min56: float32, %clip_max56: float32, %in_scale57: float32, %out_scale57: float32, %clip_min57: float32, %clip_max57: float32, %in_scale58: float32, %out_scale58: float32, %clip_min58: float32, %clip_max58: float32, %in_scale59: float32, %out_scale59: float32, %clip_min59: float32, %clip_max59: float32, %in_scale60: float32, %out_scale60: float32, %clip_min60: float32, %clip_max60: float32, %in_scale61: float32, %out_scale61: float32, %clip_min61: float32, %clip_max61: float32, %in_scale71: float32, %out_scale71: float32, %clip_min71: float32, %clip_max71: float32, %in_scale62: float32, %out_scale62: float32, %clip_min62: float32, %clip_max62: float32, %in_scale63: float32, %out_scale63: float32, %clip_min63: float32, %clip_max63: float32, %in_scale64: float32, %out_scale64: float32, %clip_min64: float32, %clip_max64: float32, %in_scale65: float32, %out_scale65: float32, %clip_min65: float32, %clip_max65: float32, %in_scale66: float32, %out_scale66: float32, %clip_min66: float32, %clip_max66: float32, %in_scale67: float32, %out_scale67: float32, %clip_min67: float32, %clip_max67: float32, %in_scale68: float32, %out_scale68: float32, %clip_min68: float32, %clip_max68: float32, %in_scale69: float32, %out_scale69: float32, %clip_min69: float32, %clip_max69: float32, %in_scale70: float32, %out_scale70: float32, %clip_min70: float32, %clip_max70: float32, %in_scale72: float32, %out_scale72: float32, %clip_min72: float32, %clip_max72: float32, %in_scale73: float32, %out_scale73: float32, %clip_min73: float32, %clip_max73: float32, %in_scale83: float32, %out_scale83: float32, %clip_min83: float32, %clip_max83: float32, %in_scale74: float32, %out_scale74: float32, %clip_min74: float32, %clip_max74: float32, %in_scale75: float32, %out_scale75: float32, %clip_min75: float32, %clip_max75: float32, %in_scale76: float32, %out_scale76: float32, %clip_min76: float32, %clip_max76: float32, %in_scale77: float32, %out_scale77: float32, %clip_min77: float32, %clip_max77: float32, %in_scale78: float32, %out_scale78: float32, %clip_min78: float32, %clip_max78: float32, %in_scale79: float32, %out_scale79: float32, %clip_min79: float32, %clip_max79: float32, %in_scale80: float32, %out_scale80: float32, %clip_min80: float32, %clip_max80: float32, %in_scale81: float32, %out_scale81: float32, %clip_min81: float32, %clip_max81: float32, %in_scale82: float32, %out_scale82: float32, %clip_min82: float32, %clip_max82: float32, %in_scale84: float32, %out_scale84: float32, %clip_min84: float32, %clip_max84: float32, %in_scale85: float32, %out_scale85: float32, %clip_min85: float32, %clip_max85: float32, %in_scale86: float32, %out_scale86: float32, %clip_min86: float32, %clip_max86: float32, %in_scale87: float32, %out_scale87: float32, %clip_min87: float32, %clip_max87: float32, %in_scale88: float32, %out_scale88: float32, %clip_min88: float32, %clip_max88: float32, %in_scale89: float32, %out_scale89: float32, %clip_min89: float32, %clip_max89: float32, %in_scale99: float32, %out_scale99: float32, %clip_min99: float32, %clip_max99: float32, %in_scale90: float32, %out_scale90: float32, %clip_min90: float32, %clip_max90: float32, %in_scale91: float32, %out_scale91: float32, %clip_min91: float32, %clip_max91: float32, %in_scale92: float32, %out_scale92: float32, %clip_min92: float32, %clip_max92: float32, %in_scale93: float32, %out_scale93: float32, %clip_min93: float32, %clip_max93: float32, %in_scale94: float32, %out_scale94: float32, %clip_min94: float32, %clip_max94: float32, %in_scale95: float32, %out_scale95: float32, %clip_min95: float32, %clip_max95: float32, %in_scale96: float32, %out_scale96: float32, %clip_min96: float32, %clip_max96: float32, %in_scale97: float32, %out_scale97: float32, %clip_min97: float32, %clip_max97: float32, %in_scale98: float32, %out_scale98: float32, %clip_min98: float32, %clip_max98: float32, %in_scale100: float32, %out_scale100: float32, %clip_min100: float32, %clip_max100: float32, %in_scale101: float32, %out_scale101: float32, %clip_min101: float32, %clip_max101: float32, %in_scale111: float32, %out_scale111: float32, %clip_min111: float32, %clip_max111: float32, %in_scale102: float32, %out_scale102: float32, %clip_min102: float32, %clip_max102: float32, %in_scale103: float32, %out_scale103: float32, %clip_min103: float32, %clip_max103: float32, %in_scale104: float32, %out_scale104: float32, %clip_min104: float32, %clip_max104: float32, %in_scale105: float32, %out_scale105: float32, %clip_min105: float32, %clip_max105: float32, %in_scale106: float32, %out_scale106: float32, %clip_min106: float32, %clip_max106: float32, %in_scale107: float32, %out_scale107: float32, %clip_min107: float32, %clip_max107: float32, %in_scale108: float32, %out_scale108: float32, %clip_min108: float32, %clip_max108: float32, %in_scale109: float32, %out_scale109: float32, %clip_min109: float32, %clip_max109: float32, %in_scale110: float32, %out_scale110: float32, %clip_min110: float32, %clip_max110: float32, %in_scale112: float32, %out_scale112: float32, %clip_min112: float32, %clip_max112: float32, %in_scale113: float32, %out_scale113: float32, %clip_min113: float32, %clip_max113: float32, %in_scale114: float32, %out_scale114: float32, %clip_min114: float32, %clip_max114: float32, %in_scale115: float32, %out_scale115: float32, %clip_min115: float32, %clip_max115: float32, %in_scale116: float32, %out_scale116: float32, %clip_min116: float32, %clip_max116: float32, %in_scale117: float32, %out_scale117: float32, %clip_min117: float32, %clip_max117: float32, %in_scale118: float32, %out_scale118: float32, %clip_min118: float32, %clip_max118: float32, %in_scale119: float32, %out_scale119: float32, %clip_min119: float32, %clip_max119: float32, %in_scale120: float32, %out_scale120: float32, %clip_min120: float32, %clip_max120: float32) -> Tensor[(32, 1000), float32] {
  %0 = nn.simulated_quantize(%data, %in_scale0, %out_scale0, %clip_min0, %clip_max0, in_dtype="float32", out_dtype="int8", axis=None) /* ty=Tensor[(32, 3, 224, 224), float32] */;
  %1 = nn.simulated_quantize(meta[relay.Constant][0] /* ty=Tensor[(64, 3, 7, 7), float32] */ /* ty=Tensor[(64, 3, 7, 7), float32] */, %in_scale1, %out_scale1, %clip_min1, %clip_max1, in_dtype="float32", out_dtype="int8", axis=None) /* ty=Tensor[(64, 3, 7, 7), float32] */;
  %2 = nn.conv2d(%0, %1, strides=[2, 2], padding=[3, 3, 3, 3], channels=64, kernel_size=[7, 7]) /* ty=Tensor[(32, 64, 112, 112), float32] */;
  %3 = nn.simulated_quantize(%2, %in_scale2, %out_scale2, %clip_min2, %clip_max2, in_dtype="int32", out_dtype="int32", axis=None) /* ty=Tensor[(32, 64, 112, 112), float32] */;
  %4 = nn.simulated_quantize(meta[relay.Constant][1] /* ty=Tensor[(64, 1, 1), float32] */ /* ty=Tensor[(64, 1, 1), float32] */, %in_scale3, %out_scale3, %clip_min3, %clip_max3, in_dtype="float32", out_dtype="int32", axis=None) /* ty=Tensor[(64, 1, 1), float32] */;
  %5 = add(%3, %4) /* ty=Tensor[(32, 64, 112, 112), float32] */;
  %6 = nn.simulated_quantize(%5, %in_scale4, %out_scale4, %clip_min4, %clip_max4, in_dtype="int32", out_dtype="int32", axis=None) /* ty=Tensor[(32, 64, 112, 112), float32] */;
  %7 = nn.relu(%6) /* ty=Tensor[(32, 64, 112, 112), float32] */;
  %8 = nn.simulated_quantize(%7, %in_scale5, %out_scale5, %clip_min5, %clip_max5, in_dtype="int32", out_dtype="int32", axis=None) /* ty=Tensor[(32, 64, 112, 112), float32] */;
  %9 = nn.max_pool2d(%8, pool_size=[3, 3], strides=[2, 2], padding=[1, 1, 1, 1]) /* ty=Tensor[(32, 64, 56, 56), float32] */;
  %10 = nn.simulated_quantize(%9, %in_scale15, %out_scale15, %clip_min15, %clip_max15, in_dtype="int32", out_dtype="int32", axis=None) /* ty=Tensor[(32, 64, 56, 56), float32] */;
  %11 = nn.simulated_quantize(%9, %in_scale6, %out_scale6, %clip_min6, %clip_max6, in_dtype="int32", out_dtype="int8", axis=None) /* ty=Tensor[(32, 64, 56, 56), float32] */;
  %12 = nn.simulated_quantize(meta[relay.Constant][2] /* ty=Tensor[(64, 64, 3, 3), float32] */ /* ty=Tensor[(64, 64, 3, 3), float32] */, %in_scale7, %out_scale7, %clip_min7, %clip_max7, in_dtype="float32", out_dtype="int8", axis=None) /* ty=Tensor[(64, 64, 3, 3), float32] */;
  %13 = nn.conv2d(%11, %12, padding=[1, 1, 1, 1], channels=64, kernel_size=[3, 3]) /* ty=Tensor[(32, 64, 56, 56), float32] */;
  %14 = nn.simulated_quantize(%13, %in_scale8, %out_scale8, %clip_min8, %clip_max8, in_dtype="int32", out_dtype="int32", axis=None) /* ty=Tensor[(32, 64, 56, 56), float32] */;
  %15 = nn.simulated_quantize(meta[relay.Constant][3] /* ty=Tensor[(64, 1, 1), float32] */ /* ty=Tensor[(64, 1, 1), float32] */, %in_scale9, %out_scale9, %clip_min9, %clip_max9, in_dtype="float32", out_dtype="int32", axis=None) /* ty=Tensor[(64, 1, 1), float32] */;
  %16 = add(%14, %15) /* ty=Tensor[(32, 64, 56, 56), float32] */;
  %17 = nn.simulated_quantize(%16, %in_scale10, %out_scale10, %clip_min10, %clip_max10, in_dtype="int32", out_dtype="int32", axis=None) /* ty=Tensor[(32, 64, 56, 56), float32] */;
  %18 = nn.relu(%17) /* ty=Tensor[(32, 64, 56, 56), float32] */;
  %19 = nn.simulated_quantize(%18, %in_scale11, %out_scale11, %clip_min11, %clip_max11, in_dtype="int32", out_dtype="int8", axis=None) /* ty=Tensor[(32, 64, 56, 56), float32] */;
  %20 = nn.simulated_quantize(meta[relay.Constant][4] /* ty=Tensor[(64, 64, 3, 3), float32] */ /* ty=Tensor[(64, 64, 3, 3), float32] */, %in_scale12, %out_scale12, %clip_min12, %clip_max12, in_dtype="float32", out_dtype="int8", axis=None) /* ty=Tensor[(64, 64, 3, 3), float32] */;
  %21 = nn.conv2d(%19, %20, padding=[1, 1, 1, 1], channels=64, kernel_size=[3, 3]) /* ty=Tensor[(32, 64, 56, 56), float32] */;
  %22 = nn.simulated_quantize(%21, %in_scale13, %out_scale13, %clip_min13, %clip_max13, in_dtype="int32", out_dtype="int32", axis=None) /* ty=Tensor[(32, 64, 56, 56), float32] */;
  %23 = nn.simulated_quantize(meta[relay.Constant][5] /* ty=Tensor[(64, 1, 1), float32] */ /* ty=Tensor[(64, 1, 1), float32] */, %in_scale14, %out_scale14, %clip_min14, %clip_max14, in_dtype="float32", out_dtype="int32", axis=None) /* ty=Tensor[(64, 1, 1), float32] */;
  %24 = add(%22, %23) /* ty=Tensor[(32, 64, 56, 56), float32] */;
  %25 = nn.simulated_quantize(%24, %in_scale16, %out_scale16, %clip_min16, %clip_max16, in_dtype="int32", out_dtype="int32", axis=None) /* ty=Tensor[(32, 64, 56, 56), float32] */;
  %26 = add(%10, %25) /* ty=Tensor[(32, 64, 56, 56), float32] */;
  %27 = nn.simulated_quantize(%26, %in_scale17, %out_scale17, %clip_min17, %clip_max17, in_dtype="int32", out_dtype="int32", axis=None) /* ty=Tensor[(32, 64, 56, 56), float32] */;
  %28 = nn.relu(%27) /* ty=Tensor[(32, 64, 56, 56), float32] */;
  %29 = nn.simulated_quantize(%28, %in_scale27, %out_scale27, %clip_min27, %clip_max27, in_dtype="int32", out_dtype="int32", axis=None) /* ty=Tensor[(32, 64, 56, 56), float32] */;
  %30 = nn.simulated_quantize(%28, %in_scale18, %out_scale18, %clip_min18, %clip_max18, in_dtype="int32", out_dtype="int8", axis=None) /* ty=Tensor[(32, 64, 56, 56), float32] */;
  %31 = nn.simulated_quantize(meta[relay.Constant][6] /* ty=Tensor[(64, 64, 3, 3), float32] */ /* ty=Tensor[(64, 64, 3, 3), float32] */, %in_scale19, %out_scale19, %clip_min19, %clip_max19, in_dtype="float32", out_dtype="int8", axis=None) /* ty=Tensor[(64, 64, 3, 3), float32] */;
  %32 = nn.conv2d(%30, %31, padding=[1, 1, 1, 1], channels=64, kernel_size=[3, 3]) /* ty=Tensor[(32, 64, 56, 56), float32] */;
  %33 = nn.simulated_quantize(%32, %in_scale20, %out_scale20, %clip_min20, %clip_max20, in_dtype="int32", out_dtype="int32", axis=None) /* ty=Tensor[(32, 64, 56, 56), float32] */;
  %34 = nn.simulated_quantize(meta[relay.Constant][7] /* ty=Tensor[(64, 1, 1), float32] */ /* ty=Tensor[(64, 1, 1), float32] */, %in_scale21, %out_scale21, %clip_min21, %clip_max21, in_dtype="float32", out_dtype="int32", axis=None) /* ty=Tensor[(64, 1, 1), float32] */;
  %35 = add(%33, %34) /* ty=Tensor[(32, 64, 56, 56), float32] */;
  %36 = nn.simulated_quantize(%35, %in_scale22, %out_scale22, %clip_min22, %clip_max22, in_dtype="int32", out_dtype="int32", axis=None) /* ty=Tensor[(32, 64, 56, 56), float32] */;
  %37 = nn.relu(%36) /* ty=Tensor[(32, 64, 56, 56), float32] */;
  %38 = nn.simulated_quantize(%37, %in_scale23, %out_scale23, %clip_min23, %clip_max23, in_dtype="int32", out_dtype="int8", axis=None) /* ty=Tensor[(32, 64, 56, 56), float32] */;
  %39 = nn.simulated_quantize(meta[relay.Constant][8] /* ty=Tensor[(64, 64, 3, 3), float32] */ /* ty=Tensor[(64, 64, 3, 3), float32] */, %in_scale24, %out_scale24, %clip_min24, %clip_max24, in_dtype="float32", out_dtype="int8", axis=None) /* ty=Tensor[(64, 64, 3, 3), float32] */;
  %40 = nn.conv2d(%38, %39, padding=[1, 1, 1, 1], channels=64, kernel_size=[3, 3]) /* ty=Tensor[(32, 64, 56, 56), float32] */;
  %41 = nn.simulated_quantize(%40, %in_scale25, %out_scale25, %clip_min25, %clip_max25, in_dtype="int32", out_dtype="int32", axis=None) /* ty=Tensor[(32, 64, 56, 56), float32] */;
  %42 = nn.simulated_quantize(meta[relay.Constant][9] /* ty=Tensor[(64, 1, 1), float32] */ /* ty=Tensor[(64, 1, 1), float32] */, %in_scale26, %out_scale26, %clip_min26, %clip_max26, in_dtype="float32", out_dtype="int32", axis=None) /* ty=Tensor[(64, 1, 1), float32] */;
  %43 = add(%41, %42) /* ty=Tensor[(32, 64, 56, 56), float32] */;
  %44 = nn.simulated_quantize(%43, %in_scale28, %out_scale28, %clip_min28, %clip_max28, in_dtype="int32", out_dtype="int32", axis=None) /* ty=Tensor[(32, 64, 56, 56), float32] */;
  %45 = add(%29, %44) /* ty=Tensor[(32, 64, 56, 56), float32] */;
  %46 = nn.simulated_quantize(%45, %in_scale29, %out_scale29, %clip_min29, %clip_max29, in_dtype="int32", out_dtype="int32", axis=None) /* ty=Tensor[(32, 64, 56, 56), float32] */;
  %47 = nn.relu(%46) /* ty=Tensor[(32, 64, 56, 56), float32] */;
  %48 = nn.simulated_quantize(%47, %in_scale30, %out_scale30, %clip_min30, %clip_max30, in_dtype="int32", out_dtype="int8", axis=None) /* ty=Tensor[(32, 64, 56, 56), float32] */;
  %49 = nn.simulated_quantize(meta[relay.Constant][10] /* ty=Tensor[(128, 64, 1, 1), float32] */ /* ty=Tensor[(128, 64, 1, 1), float32] */, %in_scale31, %out_scale31, %clip_min31, %clip_max31, in_dtype="float32", out_dtype="int8", axis=None) /* ty=Tensor[(128, 64, 1, 1), float32] */;
  %50 = nn.conv2d(%48, %49, strides=[2, 2], padding=[0, 0, 0, 0], channels=128, kernel_size=[1, 1]) /* ty=Tensor[(32, 128, 28, 28), float32] */;
  %51 = nn.simulated_quantize(%50, %in_scale32, %out_scale32, %clip_min32, %clip_max32, in_dtype="int32", out_dtype="int32", axis=None) /* ty=Tensor[(32, 128, 28, 28), float32] */;
  %52 = nn.simulated_quantize(meta[relay.Constant][11] /* ty=Tensor[(128, 1, 1), float32] */ /* ty=Tensor[(128, 1, 1), float32] */, %in_scale33, %out_scale33, %clip_min33, %clip_max33, in_dtype="float32", out_dtype="int32", axis=None) /* ty=Tensor[(128, 1, 1), float32] */;
  %53 = add(%51, %52) /* ty=Tensor[(32, 128, 28, 28), float32] */;
  %54 = nn.simulated_quantize(%53, %in_scale43, %out_scale43, %clip_min43, %clip_max43, in_dtype="int32", out_dtype="int32", axis=None) /* ty=Tensor[(32, 128, 28, 28), float32] */;
  %55 = nn.simulated_quantize(%47, %in_scale34, %out_scale34, %clip_min34, %clip_max34, in_dtype="int32", out_dtype="int8", axis=None) /* ty=Tensor[(32, 64, 56, 56), float32] */;
  %56 = nn.simulated_quantize(meta[relay.Constant][12] /* ty=Tensor[(128, 64, 3, 3), float32] */ /* ty=Tensor[(128, 64, 3, 3), float32] */, %in_scale35, %out_scale35, %clip_min35, %clip_max35, in_dtype="float32", out_dtype="int8", axis=None) /* ty=Tensor[(128, 64, 3, 3), float32] */;
  %57 = nn.conv2d(%55, %56, strides=[2, 2], padding=[1, 1, 1, 1], channels=128, kernel_size=[3, 3]) /* ty=Tensor[(32, 128, 28, 28), float32] */;
  %58 = nn.simulated_quantize(%57, %in_scale36, %out_scale36, %clip_min36, %clip_max36, in_dtype="int32", out_dtype="int32", axis=None) /* ty=Tensor[(32, 128, 28, 28), float32] */;
  %59 = nn.simulated_quantize(meta[relay.Constant][13] /* ty=Tensor[(128, 1, 1), float32] */ /* ty=Tensor[(128, 1, 1), float32] */, %in_scale37, %out_scale37, %clip_min37, %clip_max37, in_dtype="float32", out_dtype="int32", axis=None) /* ty=Tensor[(128, 1, 1), float32] */;
  %60 = add(%58, %59) /* ty=Tensor[(32, 128, 28, 28), float32] */;
  %61 = nn.simulated_quantize(%60, %in_scale38, %out_scale38, %clip_min38, %clip_max38, in_dtype="int32", out_dtype="int32", axis=None) /* ty=Tensor[(32, 128, 28, 28), float32] */;
  %62 = nn.relu(%61) /* ty=Tensor[(32, 128, 28, 28), float32] */;
  %63 = nn.simulated_quantize(%62, %in_scale39, %out_scale39, %clip_min39, %clip_max39, in_dtype="int32", out_dtype="int8", axis=None) /* ty=Tensor[(32, 128, 28, 28), float32] */;
  %64 = nn.simulated_quantize(meta[relay.Constant][14] /* ty=Tensor[(128, 128, 3, 3), float32] */ /* ty=Tensor[(128, 128, 3, 3), float32] */, %in_scale40, %out_scale40, %clip_min40, %clip_max40, in_dtype="float32", out_dtype="int8", axis=None) /* ty=Tensor[(128, 128, 3, 3), float32] */;
  %65 = nn.conv2d(%63, %64, padding=[1, 1, 1, 1], channels=128, kernel_size=[3, 3]) /* ty=Tensor[(32, 128, 28, 28), float32] */;
  %66 = nn.simulated_quantize(%65, %in_scale41, %out_scale41, %clip_min41, %clip_max41, in_dtype="int32", out_dtype="int32", axis=None) /* ty=Tensor[(32, 128, 28, 28), float32] */;
  %67 = nn.simulated_quantize(meta[relay.Constant][15] /* ty=Tensor[(128, 1, 1), float32] */ /* ty=Tensor[(128, 1, 1), float32] */, %in_scale42, %out_scale42, %clip_min42, %clip_max42, in_dtype="float32", out_dtype="int32", axis=None) /* ty=Tensor[(128, 1, 1), float32] */;
  %68 = add(%66, %67) /* ty=Tensor[(32, 128, 28, 28), float32] */;
  %69 = nn.simulated_quantize(%68, %in_scale44, %out_scale44, %clip_min44, %clip_max44, in_dtype="int32", out_dtype="int32", axis=None) /* ty=Tensor[(32, 128, 28, 28), float32] */;
  %70 = add(%54, %69) /* ty=Tensor[(32, 128, 28, 28), float32] */;
  %71 = nn.simulated_quantize(%70, %in_scale45, %out_scale45, %clip_min45, %clip_max45, in_dtype="int32", out_dtype="int32", axis=None) /* ty=Tensor[(32, 128, 28, 28), float32] */;
  %72 = nn.relu(%71) /* ty=Tensor[(32, 128, 28, 28), float32] */;
  %73 = nn.simulated_quantize(%72, %in_scale55, %out_scale55, %clip_min55, %clip_max55, in_dtype="int32", out_dtype="int32", axis=None) /* ty=Tensor[(32, 128, 28, 28), float32] */;
  %74 = nn.simulated_quantize(%72, %in_scale46, %out_scale46, %clip_min46, %clip_max46, in_dtype="int32", out_dtype="int8", axis=None) /* ty=Tensor[(32, 128, 28, 28), float32] */;
  %75 = nn.simulated_quantize(meta[relay.Constant][16] /* ty=Tensor[(128, 128, 3, 3), float32] */ /* ty=Tensor[(128, 128, 3, 3), float32] */, %in_scale47, %out_scale47, %clip_min47, %clip_max47, in_dtype="float32", out_dtype="int8", axis=None) /* ty=Tensor[(128, 128, 3, 3), float32] */;
  %76 = nn.conv2d(%74, %75, padding=[1, 1, 1, 1], channels=128, kernel_size=[3, 3]) /* ty=Tensor[(32, 128, 28, 28), float32] */;
  %77 = nn.simulated_quantize(%76, %in_scale48, %out_scale48, %clip_min48, %clip_max48, in_dtype="int32", out_dtype="int32", axis=None) /* ty=Tensor[(32, 128, 28, 28), float32] */;
  %78 = nn.simulated_quantize(meta[relay.Constant][17] /* ty=Tensor[(128, 1, 1), float32] */ /* ty=Tensor[(128, 1, 1), float32] */, %in_scale49, %out_scale49, %clip_min49, %clip_max49, in_dtype="float32", out_dtype="int32", axis=None) /* ty=Tensor[(128, 1, 1), float32] */;
  %79 = add(%77, %78) /* ty=Tensor[(32, 128, 28, 28), float32] */;
  %80 = nn.simulated_quantize(%79, %in_scale50, %out_scale50, %clip_min50, %clip_max50, in_dtype="int32", out_dtype="int32", axis=None) /* ty=Tensor[(32, 128, 28, 28), float32] */;
  %81 = nn.relu(%80) /* ty=Tensor[(32, 128, 28, 28), float32] */;
  %82 = nn.simulated_quantize(%81, %in_scale51, %out_scale51, %clip_min51, %clip_max51, in_dtype="int32", out_dtype="int8", axis=None) /* ty=Tensor[(32, 128, 28, 28), float32] */;
  %83 = nn.simulated_quantize(meta[relay.Constant][18] /* ty=Tensor[(128, 128, 3, 3), float32] */ /* ty=Tensor[(128, 128, 3, 3), float32] */, %in_scale52, %out_scale52, %clip_min52, %clip_max52, in_dtype="float32", out_dtype="int8", axis=None) /* ty=Tensor[(128, 128, 3, 3), float32] */;
  %84 = nn.conv2d(%82, %83, padding=[1, 1, 1, 1], channels=128, kernel_size=[3, 3]) /* ty=Tensor[(32, 128, 28, 28), float32] */;
  %85 = nn.simulated_quantize(%84, %in_scale53, %out_scale53, %clip_min53, %clip_max53, in_dtype="int32", out_dtype="int32", axis=None) /* ty=Tensor[(32, 128, 28, 28), float32] */;
  %86 = nn.simulated_quantize(meta[relay.Constant][19] /* ty=Tensor[(128, 1, 1), float32] */ /* ty=Tensor[(128, 1, 1), float32] */, %in_scale54, %out_scale54, %clip_min54, %clip_max54, in_dtype="float32", out_dtype="int32", axis=None) /* ty=Tensor[(128, 1, 1), float32] */;
  %87 = add(%85, %86) /* ty=Tensor[(32, 128, 28, 28), float32] */;
  %88 = nn.simulated_quantize(%87, %in_scale56, %out_scale56, %clip_min56, %clip_max56, in_dtype="int32", out_dtype="int32", axis=None) /* ty=Tensor[(32, 128, 28, 28), float32] */;
  %89 = add(%73, %88) /* ty=Tensor[(32, 128, 28, 28), float32] */;
  %90 = nn.simulated_quantize(%89, %in_scale57, %out_scale57, %clip_min57, %clip_max57, in_dtype="int32", out_dtype="int32", axis=None) /* ty=Tensor[(32, 128, 28, 28), float32] */;
  %91 = nn.relu(%90) /* ty=Tensor[(32, 128, 28, 28), float32] */;
  %92 = nn.simulated_quantize(%91, %in_scale58, %out_scale58, %clip_min58, %clip_max58, in_dtype="int32", out_dtype="int8", axis=None) /* ty=Tensor[(32, 128, 28, 28), float32] */;
  %93 = nn.simulated_quantize(meta[relay.Constant][20] /* ty=Tensor[(256, 128, 1, 1), float32] */ /* ty=Tensor[(256, 128, 1, 1), float32] */, %in_scale59, %out_scale59, %clip_min59, %clip_max59, in_dtype="float32", out_dtype="int8", axis=None) /* ty=Tensor[(256, 128, 1, 1), float32] */;
  %94 = nn.conv2d(%92, %93, strides=[2, 2], padding=[0, 0, 0, 0], channels=256, kernel_size=[1, 1]) /* ty=Tensor[(32, 256, 14, 14), float32] */;
  %95 = nn.simulated_quantize(%94, %in_scale60, %out_scale60, %clip_min60, %clip_max60, in_dtype="int32", out_dtype="int32", axis=None) /* ty=Tensor[(32, 256, 14, 14), float32] */;
  %96 = nn.simulated_quantize(meta[relay.Constant][21] /* ty=Tensor[(256, 1, 1), float32] */ /* ty=Tensor[(256, 1, 1), float32] */, %in_scale61, %out_scale61, %clip_min61, %clip_max61, in_dtype="float32", out_dtype="int32", axis=None) /* ty=Tensor[(256, 1, 1), float32] */;
  %97 = add(%95, %96) /* ty=Tensor[(32, 256, 14, 14), float32] */;
  %98 = nn.simulated_quantize(%97, %in_scale71, %out_scale71, %clip_min71, %clip_max71, in_dtype="int32", out_dtype="int32", axis=None) /* ty=Tensor[(32, 256, 14, 14), float32] */;
  %99 = nn.simulated_quantize(%91, %in_scale62, %out_scale62, %clip_min62, %clip_max62, in_dtype="int32", out_dtype="int8", axis=None) /* ty=Tensor[(32, 128, 28, 28), float32] */;
  %100 = nn.simulated_quantize(meta[relay.Constant][22] /* ty=Tensor[(256, 128, 3, 3), float32] */ /* ty=Tensor[(256, 128, 3, 3), float32] */, %in_scale63, %out_scale63, %clip_min63, %clip_max63, in_dtype="float32", out_dtype="int8", axis=None) /* ty=Tensor[(256, 128, 3, 3), float32] */;
  %101 = nn.conv2d(%99, %100, strides=[2, 2], padding=[1, 1, 1, 1], channels=256, kernel_size=[3, 3]) /* ty=Tensor[(32, 256, 14, 14), float32] */;
  %102 = nn.simulated_quantize(%101, %in_scale64, %out_scale64, %clip_min64, %clip_max64, in_dtype="int32", out_dtype="int32", axis=None) /* ty=Tensor[(32, 256, 14, 14), float32] */;
  %103 = nn.simulated_quantize(meta[relay.Constant][23] /* ty=Tensor[(256, 1, 1), float32] */ /* ty=Tensor[(256, 1, 1), float32] */, %in_scale65, %out_scale65, %clip_min65, %clip_max65, in_dtype="float32", out_dtype="int32", axis=None) /* ty=Tensor[(256, 1, 1), float32] */;
  %104 = add(%102, %103) /* ty=Tensor[(32, 256, 14, 14), float32] */;
  %105 = nn.simulated_quantize(%104, %in_scale66, %out_scale66, %clip_min66, %clip_max66, in_dtype="int32", out_dtype="int32", axis=None) /* ty=Tensor[(32, 256, 14, 14), float32] */;
  %106 = nn.relu(%105) /* ty=Tensor[(32, 256, 14, 14), float32] */;
  %107 = nn.simulated_quantize(%106, %in_scale67, %out_scale67, %clip_min67, %clip_max67, in_dtype="int32", out_dtype="int8", axis=None) /* ty=Tensor[(32, 256, 14, 14), float32] */;
  %108 = nn.simulated_quantize(meta[relay.Constant][24] /* ty=Tensor[(256, 256, 3, 3), float32] */ /* ty=Tensor[(256, 256, 3, 3), float32] */, %in_scale68, %out_scale68, %clip_min68, %clip_max68, in_dtype="float32", out_dtype="int8", axis=None) /* ty=Tensor[(256, 256, 3, 3), float32] */;
  %109 = nn.conv2d(%107, %108, padding=[1, 1, 1, 1], channels=256, kernel_size=[3, 3]) /* ty=Tensor[(32, 256, 14, 14), float32] */;
  %110 = nn.simulated_quantize(%109, %in_scale69, %out_scale69, %clip_min69, %clip_max69, in_dtype="int32", out_dtype="int32", axis=None) /* ty=Tensor[(32, 256, 14, 14), float32] */;
  %111 = nn.simulated_quantize(meta[relay.Constant][25] /* ty=Tensor[(256, 1, 1), float32] */ /* ty=Tensor[(256, 1, 1), float32] */, %in_scale70, %out_scale70, %clip_min70, %clip_max70, in_dtype="float32", out_dtype="int32", axis=None) /* ty=Tensor[(256, 1, 1), float32] */;
  %112 = add(%110, %111) /* ty=Tensor[(32, 256, 14, 14), float32] */;
  %113 = nn.simulated_quantize(%112, %in_scale72, %out_scale72, %clip_min72, %clip_max72, in_dtype="int32", out_dtype="int32", axis=None) /* ty=Tensor[(32, 256, 14, 14), float32] */;
  %114 = add(%98, %113) /* ty=Tensor[(32, 256, 14, 14), float32] */;
  %115 = nn.simulated_quantize(%114, %in_scale73, %out_scale73, %clip_min73, %clip_max73, in_dtype="int32", out_dtype="int32", axis=None) /* ty=Tensor[(32, 256, 14, 14), float32] */;
  %116 = nn.relu(%115) /* ty=Tensor[(32, 256, 14, 14), float32] */;
  %117 = nn.simulated_quantize(%116, %in_scale83, %out_scale83, %clip_min83, %clip_max83, in_dtype="int32", out_dtype="int32", axis=None) /* ty=Tensor[(32, 256, 14, 14), float32] */;
  %118 = nn.simulated_quantize(%116, %in_scale74, %out_scale74, %clip_min74, %clip_max74, in_dtype="int32", out_dtype="int8", axis=None) /* ty=Tensor[(32, 256, 14, 14), float32] */;
  %119 = nn.simulated_quantize(meta[relay.Constant][26] /* ty=Tensor[(256, 256, 3, 3), float32] */ /* ty=Tensor[(256, 256, 3, 3), float32] */, %in_scale75, %out_scale75, %clip_min75, %clip_max75, in_dtype="float32", out_dtype="int8", axis=None) /* ty=Tensor[(256, 256, 3, 3), float32] */;
  %120 = nn.conv2d(%118, %119, padding=[1, 1, 1, 1], channels=256, kernel_size=[3, 3]) /* ty=Tensor[(32, 256, 14, 14), float32] */;
  %121 = nn.simulated_quantize(%120, %in_scale76, %out_scale76, %clip_min76, %clip_max76, in_dtype="int32", out_dtype="int32", axis=None) /* ty=Tensor[(32, 256, 14, 14), float32] */;
  %122 = nn.simulated_quantize(meta[relay.Constant][27] /* ty=Tensor[(256, 1, 1), float32] */ /* ty=Tensor[(256, 1, 1), float32] */, %in_scale77, %out_scale77, %clip_min77, %clip_max77, in_dtype="float32", out_dtype="int32", axis=None) /* ty=Tensor[(256, 1, 1), float32] */;
  %123 = add(%121, %122) /* ty=Tensor[(32, 256, 14, 14), float32] */;
  %124 = nn.simulated_quantize(%123, %in_scale78, %out_scale78, %clip_min78, %clip_max78, in_dtype="int32", out_dtype="int32", axis=None) /* ty=Tensor[(32, 256, 14, 14), float32] */;
  %125 = nn.relu(%124) /* ty=Tensor[(32, 256, 14, 14), float32] */;
  %126 = nn.simulated_quantize(%125, %in_scale79, %out_scale79, %clip_min79, %clip_max79, in_dtype="int32", out_dtype="int8", axis=None) /* ty=Tensor[(32, 256, 14, 14), float32] */;
  %127 = nn.simulated_quantize(meta[relay.Constant][28] /* ty=Tensor[(256, 256, 3, 3), float32] */ /* ty=Tensor[(256, 256, 3, 3), float32] */, %in_scale80, %out_scale80, %clip_min80, %clip_max80, in_dtype="float32", out_dtype="int8", axis=None) /* ty=Tensor[(256, 256, 3, 3), float32] */;
  %128 = nn.conv2d(%126, %127, padding=[1, 1, 1, 1], channels=256, kernel_size=[3, 3]) /* ty=Tensor[(32, 256, 14, 14), float32] */;
  %129 = nn.simulated_quantize(%128, %in_scale81, %out_scale81, %clip_min81, %clip_max81, in_dtype="int32", out_dtype="int32", axis=None) /* ty=Tensor[(32, 256, 14, 14), float32] */;
  %130 = nn.simulated_quantize(meta[relay.Constant][29] /* ty=Tensor[(256, 1, 1), float32] */ /* ty=Tensor[(256, 1, 1), float32] */, %in_scale82, %out_scale82, %clip_min82, %clip_max82, in_dtype="float32", out_dtype="int32", axis=None) /* ty=Tensor[(256, 1, 1), float32] */;
  %131 = add(%129, %130) /* ty=Tensor[(32, 256, 14, 14), float32] */;
  %132 = nn.simulated_quantize(%131, %in_scale84, %out_scale84, %clip_min84, %clip_max84, in_dtype="int32", out_dtype="int32", axis=None) /* ty=Tensor[(32, 256, 14, 14), float32] */;
  %133 = add(%117, %132) /* ty=Tensor[(32, 256, 14, 14), float32] */;
  %134 = nn.simulated_quantize(%133, %in_scale85, %out_scale85, %clip_min85, %clip_max85, in_dtype="int32", out_dtype="int32", axis=None) /* ty=Tensor[(32, 256, 14, 14), float32] */;
  %135 = nn.relu(%134) /* ty=Tensor[(32, 256, 14, 14), float32] */;
  %136 = nn.simulated_quantize(%135, %in_scale86, %out_scale86, %clip_min86, %clip_max86, in_dtype="int32", out_dtype="int8", axis=None) /* ty=Tensor[(32, 256, 14, 14), float32] */;
  %137 = nn.simulated_quantize(meta[relay.Constant][30] /* ty=Tensor[(512, 256, 1, 1), float32] */ /* ty=Tensor[(512, 256, 1, 1), float32] */, %in_scale87, %out_scale87, %clip_min87, %clip_max87, in_dtype="float32", out_dtype="int8", axis=None) /* ty=Tensor[(512, 256, 1, 1), float32] */;
  %138 = nn.conv2d(%136, %137, strides=[2, 2], padding=[0, 0, 0, 0], channels=512, kernel_size=[1, 1]) /* ty=Tensor[(32, 512, 7, 7), float32] */;
  %139 = nn.simulated_quantize(%138, %in_scale88, %out_scale88, %clip_min88, %clip_max88, in_dtype="int32", out_dtype="int32", axis=None) /* ty=Tensor[(32, 512, 7, 7), float32] */;
  %140 = nn.simulated_quantize(meta[relay.Constant][31] /* ty=Tensor[(512, 1, 1), float32] */ /* ty=Tensor[(512, 1, 1), float32] */, %in_scale89, %out_scale89, %clip_min89, %clip_max89, in_dtype="float32", out_dtype="int32", axis=None) /* ty=Tensor[(512, 1, 1), float32] */;
  %141 = add(%139, %140) /* ty=Tensor[(32, 512, 7, 7), float32] */;
  %142 = nn.simulated_quantize(%141, %in_scale99, %out_scale99, %clip_min99, %clip_max99, in_dtype="int32", out_dtype="int32", axis=None) /* ty=Tensor[(32, 512, 7, 7), float32] */;
  %143 = nn.simulated_quantize(%135, %in_scale90, %out_scale90, %clip_min90, %clip_max90, in_dtype="int32", out_dtype="int8", axis=None) /* ty=Tensor[(32, 256, 14, 14), float32] */;
  %144 = nn.simulated_quantize(meta[relay.Constant][32] /* ty=Tensor[(512, 256, 3, 3), float32] */ /* ty=Tensor[(512, 256, 3, 3), float32] */, %in_scale91, %out_scale91, %clip_min91, %clip_max91, in_dtype="float32", out_dtype="int8", axis=None) /* ty=Tensor[(512, 256, 3, 3), float32] */;
  %145 = nn.conv2d(%143, %144, strides=[2, 2], padding=[1, 1, 1, 1], channels=512, kernel_size=[3, 3]) /* ty=Tensor[(32, 512, 7, 7), float32] */;
  %146 = nn.simulated_quantize(%145, %in_scale92, %out_scale92, %clip_min92, %clip_max92, in_dtype="int32", out_dtype="int32", axis=None) /* ty=Tensor[(32, 512, 7, 7), float32] */;
  %147 = nn.simulated_quantize(meta[relay.Constant][33] /* ty=Tensor[(512, 1, 1), float32] */ /* ty=Tensor[(512, 1, 1), float32] */, %in_scale93, %out_scale93, %clip_min93, %clip_max93, in_dtype="float32", out_dtype="int32", axis=None) /* ty=Tensor[(512, 1, 1), float32] */;
  %148 = add(%146, %147) /* ty=Tensor[(32, 512, 7, 7), float32] */;
  %149 = nn.simulated_quantize(%148, %in_scale94, %out_scale94, %clip_min94, %clip_max94, in_dtype="int32", out_dtype="int32", axis=None) /* ty=Tensor[(32, 512, 7, 7), float32] */;
  %150 = nn.relu(%149) /* ty=Tensor[(32, 512, 7, 7), float32] */;
  %151 = nn.simulated_quantize(%150, %in_scale95, %out_scale95, %clip_min95, %clip_max95, in_dtype="int32", out_dtype="int8", axis=None) /* ty=Tensor[(32, 512, 7, 7), float32] */;
  %152 = nn.simulated_quantize(meta[relay.Constant][34] /* ty=Tensor[(512, 512, 3, 3), float32] */ /* ty=Tensor[(512, 512, 3, 3), float32] */, %in_scale96, %out_scale96, %clip_min96, %clip_max96, in_dtype="float32", out_dtype="int8", axis=None) /* ty=Tensor[(512, 512, 3, 3), float32] */;
  %153 = nn.conv2d(%151, %152, padding=[1, 1, 1, 1], channels=512, kernel_size=[3, 3]) /* ty=Tensor[(32, 512, 7, 7), float32] */;
  %154 = nn.simulated_quantize(%153, %in_scale97, %out_scale97, %clip_min97, %clip_max97, in_dtype="int32", out_dtype="int32", axis=None) /* ty=Tensor[(32, 512, 7, 7), float32] */;
  %155 = nn.simulated_quantize(meta[relay.Constant][35] /* ty=Tensor[(512, 1, 1), float32] */ /* ty=Tensor[(512, 1, 1), float32] */, %in_scale98, %out_scale98, %clip_min98, %clip_max98, in_dtype="float32", out_dtype="int32", axis=None) /* ty=Tensor[(512, 1, 1), float32] */;
  %156 = add(%154, %155) /* ty=Tensor[(32, 512, 7, 7), float32] */;
  %157 = nn.simulated_quantize(%156, %in_scale100, %out_scale100, %clip_min100, %clip_max100, in_dtype="int32", out_dtype="int32", axis=None) /* ty=Tensor[(32, 512, 7, 7), float32] */;
  %158 = add(%142, %157) /* ty=Tensor[(32, 512, 7, 7), float32] */;
  %159 = nn.simulated_quantize(%158, %in_scale101, %out_scale101, %clip_min101, %clip_max101, in_dtype="int32", out_dtype="int32", axis=None) /* ty=Tensor[(32, 512, 7, 7), float32] */;
  %160 = nn.relu(%159) /* ty=Tensor[(32, 512, 7, 7), float32] */;
  %161 = nn.simulated_quantize(%160, %in_scale111, %out_scale111, %clip_min111, %clip_max111, in_dtype="int32", out_dtype="int32", axis=None) /* ty=Tensor[(32, 512, 7, 7), float32] */;
  %162 = nn.simulated_quantize(%160, %in_scale102, %out_scale102, %clip_min102, %clip_max102, in_dtype="int32", out_dtype="int8", axis=None) /* ty=Tensor[(32, 512, 7, 7), float32] */;
  %163 = nn.simulated_quantize(meta[relay.Constant][36] /* ty=Tensor[(512, 512, 3, 3), float32] */ /* ty=Tensor[(512, 512, 3, 3), float32] */, %in_scale103, %out_scale103, %clip_min103, %clip_max103, in_dtype="float32", out_dtype="int8", axis=None) /* ty=Tensor[(512, 512, 3, 3), float32] */;
  %164 = nn.conv2d(%162, %163, padding=[1, 1, 1, 1], channels=512, kernel_size=[3, 3]) /* ty=Tensor[(32, 512, 7, 7), float32] */;
  %165 = nn.simulated_quantize(%164, %in_scale104, %out_scale104, %clip_min104, %clip_max104, in_dtype="int32", out_dtype="int32", axis=None) /* ty=Tensor[(32, 512, 7, 7), float32] */;
  %166 = nn.simulated_quantize(meta[relay.Constant][37] /* ty=Tensor[(512, 1, 1), float32] */ /* ty=Tensor[(512, 1, 1), float32] */, %in_scale105, %out_scale105, %clip_min105, %clip_max105, in_dtype="float32", out_dtype="int32", axis=None) /* ty=Tensor[(512, 1, 1), float32] */;
  %167 = add(%165, %166) /* ty=Tensor[(32, 512, 7, 7), float32] */;
  %168 = nn.simulated_quantize(%167, %in_scale106, %out_scale106, %clip_min106, %clip_max106, in_dtype="int32", out_dtype="int32", axis=None) /* ty=Tensor[(32, 512, 7, 7), float32] */;
  %169 = nn.relu(%168) /* ty=Tensor[(32, 512, 7, 7), float32] */;
  %170 = nn.simulated_quantize(%169, %in_scale107, %out_scale107, %clip_min107, %clip_max107, in_dtype="int32", out_dtype="int8", axis=None) /* ty=Tensor[(32, 512, 7, 7), float32] */;
  %171 = nn.simulated_quantize(meta[relay.Constant][38] /* ty=Tensor[(512, 512, 3, 3), float32] */ /* ty=Tensor[(512, 512, 3, 3), float32] */, %in_scale108, %out_scale108, %clip_min108, %clip_max108, in_dtype="float32", out_dtype="int8", axis=None) /* ty=Tensor[(512, 512, 3, 3), float32] */;
  %172 = nn.conv2d(%170, %171, padding=[1, 1, 1, 1], channels=512, kernel_size=[3, 3]) /* ty=Tensor[(32, 512, 7, 7), float32] */;
  %173 = nn.simulated_quantize(%172, %in_scale109, %out_scale109, %clip_min109, %clip_max109, in_dtype="int32", out_dtype="int32", axis=None) /* ty=Tensor[(32, 512, 7, 7), float32] */;
  %174 = nn.simulated_quantize(meta[relay.Constant][39] /* ty=Tensor[(512, 1, 1), float32] */ /* ty=Tensor[(512, 1, 1), float32] */, %in_scale110, %out_scale110, %clip_min110, %clip_max110, in_dtype="float32", out_dtype="int32", axis=None) /* ty=Tensor[(512, 1, 1), float32] */;
  %175 = add(%173, %174) /* ty=Tensor[(32, 512, 7, 7), float32] */;
  %176 = nn.simulated_quantize(%175, %in_scale112, %out_scale112, %clip_min112, %clip_max112, in_dtype="int32", out_dtype="int32", axis=None) /* ty=Tensor[(32, 512, 7, 7), float32] */;
  %177 = add(%161, %176) /* ty=Tensor[(32, 512, 7, 7), float32] */;
  %178 = nn.simulated_quantize(%177, %in_scale113, %out_scale113, %clip_min113, %clip_max113, in_dtype="int32", out_dtype="int32", axis=None) /* ty=Tensor[(32, 512, 7, 7), float32] */;
  %179 = nn.relu(%178) /* ty=Tensor[(32, 512, 7, 7), float32] */;
  %180 = nn.simulated_quantize(%179, %in_scale114, %out_scale114, %clip_min114, %clip_max114, in_dtype="int32", out_dtype="float32", axis=None) /* ty=Tensor[(32, 512, 7, 7), float32] */;
  %181 = nn.global_avg_pool2d(%180) /* ty=Tensor[(32, 512, 1, 1), float32] */;
  %182 = nn.simulated_quantize(%181, %in_scale115, %out_scale115, %clip_min115, %clip_max115, in_dtype="float32", out_dtype="float32", axis=None) /* ty=Tensor[(32, 512, 1, 1), float32] */;
  %183 = nn.batch_flatten(%182) /* ty=Tensor[(32, 512), float32] */;
  %184 = nn.simulated_quantize(%183, %in_scale116, %out_scale116, %clip_min116, %clip_max116, in_dtype="float32", out_dtype="float32", axis=None) /* ty=Tensor[(32, 512), float32] */;
  %185 = nn.simulated_quantize(meta[relay.Constant][40] /* ty=Tensor[(1000, 512), float32] */ /* ty=Tensor[(1000, 512), float32] */, %in_scale117, %out_scale117, %clip_min117, %clip_max117, in_dtype="float32", out_dtype="float32", axis=None) /* ty=Tensor[(1000, 512), float32] */;
  %186 = nn.dense(%184, %185, units=1000) /* ty=Tensor[(32, 1000), float32] */;
  %187 = nn.simulated_quantize(%186, %in_scale118, %out_scale118, %clip_min118, %clip_max118, in_dtype="float32", out_dtype="float32", axis=None) /* ty=Tensor[(32, 1000), float32] */;
  %188 = nn.simulated_quantize(meta[relay.Constant][41] /* ty=Tensor[(1000), float32] */ /* ty=Tensor[(1000), float32] */, %in_scale119, %out_scale119, %clip_min119, %clip_max119, in_dtype="float32", out_dtype="float32", axis=None) /* ty=Tensor[(1000), float32] */;
  %189 = add(%187, %188) /* ty=Tensor[(32, 1000), float32] */;
  nn.simulated_quantize(%189, %in_scale120, %out_scale120, %clip_min120, %clip_max120, in_dtype="float32", out_dtype="float32", axis=None) /* ty=Tensor[(32, 1000), float32] */
}
// meta data omitted. you can use show_meta_data=True to include meta data
calculating threshold...
threshold method:
avg_range
thresholds: [… calculate parameters
---------
data[%0] -> nn.conv2d[%2]
  bit=8, threshold=2.632871389389038
  SimulatedQuantizeParams(in_scale=1.0, out_scale=0.02056930772960186, clip_min=-127, clip_max=127, in_dtype=float32, out_dtype=int8)
---------
constant[%1] -> nn.conv2d[%2]
  bit=8, threshold=0.22204819321632385
  SimulatedQuantizeParams(in_scale=1.0, out_scale=0.00173475150950253, clip_min=-127, clip_max=127, in_dtype=float32, out_dtype=int8)
---------
nn.conv2d[%2] -> add[%4]
  bit=32, threshold=0.6874880790710449
  SimulatedQuantizeParams(in_scale=3.568264e-05, out_scale=2.0259496302799107e-09, clip_min=-2147483647, clip_max=2147483647, in_dtype=int32, out_dtype=int32)
---------
constant[%3] -> add[%4]
  bit=32, threshold=0.6874880790710449
  SimulatedQuantizeParams(in_scale=1.0, out_scale=2.0259496302799107e-09, clip_min=-2147483647, clip_max=2147483647, in_dtype=float32, out_dtype=int32)
---------
add[%4] -> nn.relu[%5]
  bit=32, threshold=4.432857990264893
  SimulatedQuantizeParams(in_scale=2.0259496e-09, out_scale=2.0259496302799107e-09, clip_min=-2147483647, clip_max=2147483647, in_dtype=int32, out_dtype=int32)
---------
nn.relu[%5] -> nn.max_pool2d[%6]
  bit=32, threshold=4.432857990264893
  SimulatedQuantizeParams(in_scale=2.0259496e-09, out_scale=2.0642103581991478e-09, clip_min=-2147483647, clip_max=2147483647, in_dtype=int32, out_dtype=int32)
---------
nn.max_pool2d[%6] -> nn.conv2d[%8]
  bit=8, threshold=4.432857990264893
  SimulatedQuantizeParams(in_scale=2.0642104e-09, out_scale=0.03463170304894447, clip_min=-127, clip_max=127, in_dtype=int32, out_dtype=int8)
---------
constant[%7] -> nn.conv2d[%8]
  bit=8, threshold=0.5455304384231567
  SimulatedQuantizeParams(in_scale=1.0, out_scale=0.004261956550180912, clip_min=-127, clip_max=127, in_dtype=float32, out_dtype=int8)
---------
nn.conv2d[%8] -> add[%10]
  bit=32, threshold=1.5224659442901611
  SimulatedQuantizeParams(in_scale=0.00014759881, out_scale=4.435853462325667e-09, clip_min=-2147483647, clip_max=2147483647, in_dtype=int32, out_dtype=int32)
---------
constant[%9] -> add[%10]
  bit=32, threshold=1.5224659442901611
  SimulatedQuantizeParams(in_scale=1.0, out_scale=4.435853462325667e-09, clip_min=-2147483647, clip_max=2147483647, in_dtype=float32, out_dtype=int32)
---------
add[%10] -> nn.relu[%11]
  bit=32, threshold=8.40014934539795
  SimulatedQuantizeParams(in_scale=4.4358535e-09, out_scale=4.435853462325667e-09, clip_min=-2147483647, clip_max=2147483647, in_dtype=int32, out_dtype=int32)
---------
nn.relu[%11] -> nn.conv2d[%13]
  bit=8, threshold=3.7981371879577637
  SimulatedQuantizeParams(in_scale=4.4358535e-09, out_scale=0.02967294678092003, clip_min=-127, clip_max=127, in_dtype=int32, out_dtype=int8)
---------
constant[%12] -> nn.conv2d[%13]
  bit=8, threshold=1.077488899230957
  SimulatedQuantizeParams(in_scale=1.0, out_scale=0.008417882025241852, clip_min=-127, clip_max=127, in_dtype=float32, out_dtype=int8)
---------
nn.conv2d[%13] -> add[%15]
  bit=32, threshold=1.2661261558532715
  SimulatedQuantizeParams(in_scale=0.00024978336, out_scale=5.197664521006118e-09, clip_min=-2147483647, clip_max=2147483647, in_dtype=int32, out_dtype=int32)
---------
constant[%14] -> add[%15]
  bit=32, threshold=1.2661261558532715
  SimulatedQuantizeParams(in_scale=1.0, out_scale=5.197664521006118e-09, clip_min=-2147483647, clip_max=2147483647, in_dtype=float32, out_dtype=int32)
---------
nn.max_pool2d[%6] -> add[%16]
  bit=32, threshold=10.535104751586914
  SimulatedQuantizeParams(in_scale=2.0642104e-09, out_scale=4.905790440545843e-09, clip_min=-2147483647, clip_max=2147483647, in_dtype=int32, out_dtype=int32)
---------
add[%15] -> add[%16]
  bit=32, threshold=10.535104751586914
  SimulatedQuantizeParams(in_scale=5.1976645e-09, out_scale=4.905790440545843e-09, clip_min=-2147483647, clip_max=2147483647, in_dtype=int32, out_dtype=int32)
---------
add[%16] -> nn.relu[%17]
  bit=32, threshold=10.328388214111328
  SimulatedQuantizeParams(in_scale=4.9057904e-09, out_scale=4.905790440545843e-09, clip_min=-2147483647, clip_max=2147483647, in_dtype=int32, out_dtype=int32)
---------
nn.relu[%17] -> nn.conv2d[%19]
  bit=8, threshold=5.736265659332275
  SimulatedQuantizeParams(in_scale=4.9057904e-09, out_scale=0.0448145754635334, clip_min=-127, clip_max=127, in_dtype=int32, out_dtype=int8)
---------
constant[%18] -> nn.conv2d[%19]
  bit=8, threshold=0.24305854737758636
  SimulatedQuantizeParams(in_scale=1.0, out_scale=0.0018988949013873935, clip_min=-127, clip_max=127, in_dtype=float32, out_dtype=int8)
---------
nn.conv2d[%19] -> add[%21]
  bit=32, threshold=1.1799639463424683
  SimulatedQuantizeParams(in_scale=8.509817e-05, out_scale=2.334776372237002e-09, clip_min=-2147483647, clip_max=2147483647, in_dtype=int32, out_dtype=int32)
---------
constant[%20] -> add[%21]
  bit=32, threshold=1.1799639463424683
  SimulatedQuantizeParams(in_scale=1.0, out_scale=2.334776372237002e-09, clip_min=-2147483647, clip_max=2147483647, in_dtype=float32, out_dtype=int32)
---------
add[%21] -> nn.relu[%22]
  bit=32, threshold=4.2310895919799805
  SimulatedQuantizeParams(in_scale=2.3347764e-09, out_scale=2.334776372237002e-09, clip_min=-2147483647, clip_max=2147483647, in_dtype=int32, out_dtype=int32)
---------
nn.relu[%22] -> nn.conv2d[%24]
  bit=8, threshold=2.5727033615112305
  SimulatedQuantizeParams(in_scale=2.3347764e-09, out_scale=0.020099245011806488, clip_min=-127, clip_max=127, in_dtype=int32, out_dtype=int8)
---------
constant[%23] -> nn.conv2d[%24]
  bit=8, threshold=1.0661016702651978
  SimulatedQuantizeParams(in_scale=1.0, out_scale=0.008328919298946857, clip_min=-127, clip_max=127, in_dtype=float32, out_dtype=int8)
---------
nn.conv2d[%24] -> add[%26]
  bit=32, threshold=0.9577337503433228
  SimulatedQuantizeParams(in_scale=0.00016740499, out_scale=2.6476953962628613e-09, clip_min=-2147483647, clip_max=2147483647, in_dtype=int32, out_dtype=int32)
---------
constant[%25] -> add[%26]
  bit=32, threshold=0.9577337503433228
  SimulatedQuantizeParams(in_scale=1.0, out_scale=2.6476953962628613e-09, clip_min=-2147483647, clip_max=2147483647, in_dtype=float32, out_dtype=int32)
---------
nn.relu[%17] -> add[%27]
  bit=32, threshold=5.189483642578125
  SimulatedQuantizeParams(in_scale=4.9057904e-09, out_scale=2.671156851263845e-09, clip_min=-2147483647, clip_max=2147483647, in_dtype=int32, out_dtype=int32)
---------
add[%26] -> add[%27]
  bit=32, threshold=5.189483642578125
  SimulatedQuantizeParams(in_scale=2.6476954e-09, out_scale=2.671156851263845e-09, clip_min=-2147483647, clip_max=2147483647, in_dtype=int32, out_dtype=int32)
---------
add[%27] -> nn.relu[%28]
  bit=32, threshold=6.987095832824707
  SimulatedQuantizeParams(in_scale=2.6711569e-09, out_scale=2.671156851263845e-09, clip_min=-2147483647, clip_max=2147483647, in_dtype=int32, out_dtype=int32)
---------
nn.relu[%28] -> nn.conv2d[%30]
  bit=8, threshold=6.987095832824707
  SimulatedQuantizeParams(in_scale=2.6711569e-09, out_scale=0.054586686193943024, clip_min=-127, clip_max=127, in_dtype=int32, out_dtype=int8)
---------
constant[%29] -> nn.conv2d[%30]
  bit=8, threshold=0.647925615310669
  SimulatedQuantizeParams(in_scale=1.0, out_scale=0.005061918869614601, clip_min=-127, clip_max=127, in_dtype=float32, out_dtype=int8)
---------
nn.conv2d[%30] -> add[%32]
  bit=32, threshold=0.9377952218055725
  SimulatedQuantizeParams(in_scale=0.00027631337, out_scale=1.4074896803606407e-09, clip_min=-2147483647, clip_max=2147483647, in_dtype=int32, out_dtype=int32)
---------
constant[%31] -> add[%32]
  bit=32, threshold=0.9377952218055725
  SimulatedQuantizeParams(in_scale=1.0, out_scale=1.4074896803606407e-09, clip_min=-2147483647, clip_max=2147483647, in_dtype=float32, out_dtype=int32)
---------
nn.relu[%28] -> nn.conv2d[%34]
  bit=8, threshold=6.987095832824707
  SimulatedQuantizeParams(in_scale=2.6711569e-09, out_scale=0.054586686193943024, clip_min=-127, clip_max=127, in_dtype=int32, out_dtype=int8)
---------
constant[%33] -> nn.conv2d[%34]
  bit=8, threshold=0.1901145726442337
  SimulatedQuantizeParams(in_scale=1.0, out_scale=0.0014852700987830758, clip_min=-127, clip_max=127, in_dtype=float32, out_dtype=int8)
---------
nn.conv2d[%34] -> add[%36]
  bit=32, threshold=0.8193389177322388
  SimulatedQuantizeParams(in_scale=8.1075974e-05, out_scale=1.6231300747904243e-09, clip_min=-2147483647, clip_max=2147483647, in_dtype=int32, out_dtype=int32)
---------
constant[%35] -> add[%36]
  bit=32, threshold=0.8193389177322388
  SimulatedQuantizeParams(in_scale=1.0, out_scale=1.6231300747904243e-09, clip_min=-2147483647, clip_max=2147483647, in_dtype=float32, out_dtype=int32)
---------
add[%36] -> nn.relu[%37]
  bit=32, threshold=3.3992183208465576
  SimulatedQuantizeParams(in_scale=1.6231301e-09, out_scale=1.6231300747904243e-09, clip_min=-2147483647, clip_max=2147483647, in_dtype=int32, out_dtype=int32)
---------
nn.relu[%37] -> nn.conv2d[%39]
  bit=8, threshold=3.0592164993286133
  SimulatedQuantizeParams(in_scale=1.6231301e-09, out_scale=0.02390012890100479, clip_min=-127, clip_max=127, in_dtype=int32, out_dtype=int8)
---------
constant[%38] -> nn.conv2d[%39]
  bit=8, threshold=0.7278937101364136
  SimulatedQuantizeParams(in_scale=1.0, out_scale=0.005686669610440731, clip_min=-127, clip_max=127, in_dtype=float32, out_dtype=int8)
---------
nn.conv2d[%39] -> add[%41]
  bit=32, threshold=1.0132958889007568
  SimulatedQuantizeParams(in_scale=0.00013591214, out_scale=2.1709793962543245e-09, clip_min=-2147483647, clip_max=2147483647, in_dtype=int32, out_dtype=int32)
---------
constant[%40] -> add[%41]
  bit=32, threshold=1.0132958889007568
  SimulatedQuantizeParams(in_scale=1.0, out_scale=2.1709793962543245e-09, clip_min=-2147483647, clip_max=2147483647, in_dtype=float32, out_dtype=int32)
---------
add[%32] -> add[%42]
  bit=32, threshold=4.4390950202941895
  SimulatedQuantizeParams(in_scale=1.4074897e-09, out_scale=2.067114701631567e-09, clip_min=-2147483647, clip_max=2147483647, in_dtype=int32, out_dtype=int32)
---------
add[%41] -> add[%42]
  bit=32, threshold=4.4390950202941895
  SimulatedQuantizeParams(in_scale=2.1709794e-09, out_scale=2.067114701631567e-09, clip_min=-2147483647, clip_max=2147483647, in_dtype=int32, out_dtype=int32)
---------
add[%42] -> nn.relu[%43]
  bit=32, threshold=4.7327961921691895
  SimulatedQuantizeParams(in_scale=2.0671147e-09, out_scale=2.067114701631567e-09, clip_min=-2147483647, clip_max=2147483647, in_dtype=int32, out_dtype=int32)
---------
nn.relu[%43] -> nn.conv2d[%45]
  bit=8, threshold=4.7327961921691895
  SimulatedQuantizeParams(in_scale=2.0671147e-09, out_scale=0.03697497025132179, clip_min=-127, clip_max=127, in_dtype=int32, out_dtype=int8)
---------
constant[%44] -> nn.conv2d[%45]
  bit=8, threshold=0.4957537055015564
  SimulatedQuantizeParams(in_scale=1.0, out_scale=0.0038730758242309093, clip_min=-127, clip_max=127, in_dtype=float32, out_dtype=int8)
---------
nn.conv2d[%45] -> add[%47]
  bit=32, threshold=1.0434467792510986
  SimulatedQuantizeParams(in_scale=0.00014320687, out_scale=1.6455995455189054e-09, clip_min=-2147483647, clip_max=2147483647, in_dtype=int32, out_dtype=int32)
---------
constant[%46] -> add[%47]
  bit=32, threshold=1.0434467792510986
  SimulatedQuantizeParams(in_scale=1.0, out_scale=1.6455995455189054e-09, clip_min=-2147483647, clip_max=2147483647, in_dtype=float32, out_dtype=int32)
---------
add[%47] -> nn.relu[%48]
  bit=32, threshold=3.6343295574188232
  SimulatedQuantizeParams(in_scale=1.6455995e-09, out_scale=1.6455995455189054e-09, clip_min=-2147483647, clip_max=2147483647, in_dtype=int32, out_dtype=int32)
---------
nn.relu[%48] -> nn.conv2d[%50]
  bit=8, threshold=3.440990447998047
  SimulatedQuantizeParams(in_scale=1.6455995e-09, out_scale=0.02688273787498474, clip_min=-127, clip_max=127, in_dtype=int32, out_dtype=int8)
---------
constant[%49] -> nn.conv2d[%50]
  bit=8, threshold=0.8785249590873718
  SimulatedQuantizeParams(in_scale=1.0, out_scale=0.006863476242870092, clip_min=-127, clip_max=127, in_dtype=float32, out_dtype=int8)
---------
nn.conv2d[%50] -> add[%52]
  bit=32, threshold=0.9165743589401245
  SimulatedQuantizeParams(in_scale=0.00018450903, out_scale=2.4789912345113407e-09, clip_min=-2147483647, clip_max=2147483647, in_dtype=int32, out_dtype=int32)
---------
constant[%51] -> add[%52]
  bit=32, threshold=0.9165743589401245
  SimulatedQuantizeParams(in_scale=1.0, out_scale=2.4789912345113407e-09, clip_min=-2147483647, clip_max=2147483647, in_dtype=float32, out_dtype=int32)
---------
nn.relu[%43] -> add[%53]
  bit=32, threshold=5.510074615478516
  SimulatedQuantizeParams(in_scale=2.0671147e-09, out_scale=2.565828438605422e-09, clip_min=-2147483647, clip_max=2147483647, in_dtype=int32, out_dtype=int32)
---------
add[%52] -> add[%53]
  bit=32, threshold=5.510074615478516
  SimulatedQuantizeParams(in_scale=2.4789912e-09, out_scale=2.565828438605422e-09, clip_min=-2147483647, clip_max=2147483647, in_dtype=int32, out_dtype=int32)
---------
add[%53] -> nn.relu[%54]
  bit=32, threshold=5.74873161315918
  SimulatedQuantizeParams(in_scale=2.5658284e-09, out_scale=2.565828438605422e-09, clip_min=-2147483647, clip_max=2147483647, in_dtype=int32, out_dtype=int32)
---------
nn.relu[%54] -> nn.conv2d[%56]
  bit=8, threshold=5.74873161315918
  SimulatedQuantizeParams(in_scale=2.5658284e-09, out_scale=0.04491196572780609, clip_min=-127, clip_max=127, in_dtype=int32, out_dtype=int8)
---------
constant[%55] -> nn.conv2d[%56]
  bit=8, threshold=0.3310992419719696
  SimulatedQuantizeParams(in_scale=1.0, out_scale=0.0025867128279060125, clip_min=-127, clip_max=127, in_dtype=float32, out_dtype=int8)
---------
nn.conv2d[%56] -> add[%58]
  bit=32, threshold=0.5326772928237915
  SimulatedQuantizeParams(in_scale=0.00011617436, out_scale=8.132826079254585e-10, clip_min=-2147483647, clip_max=2147483647, in_dtype=int32, out_dtype=int32)
---------
constant[%57] -> add[%58]
  bit=32, threshold=0.5326772928237915
  SimulatedQuantizeParams(in_scale=1.0, out_scale=8.132826079254585e-10, clip_min=-2147483647, clip_max=2147483647, in_dtype=float32, out_dtype=int32)
---------
nn.relu[%54] -> nn.conv2d[%60]
  bit=8, threshold=5.74873161315918
  SimulatedQuantizeParams(in_scale=2.5658284e-09, out_scale=0.04491196572780609, clip_min=-127, clip_max=127, in_dtype=int32, out_dtype=int8)
---------
constant[%59] -> nn.conv2d[%60]
  bit=8, threshold=0.2213440239429474
  SimulatedQuantizeParams(in_scale=1.0, out_scale=0.0017292501870542765, clip_min=-127, clip_max=127, in_dtype=float32, out_dtype=int8)
---------
nn.conv2d[%60] -> add[%62]
  bit=32, threshold=0.7108252048492432
  SimulatedQuantizeParams(in_scale=7.766402e-05, out_scale=1.6637067279390294e-09, clip_min=-2147483647, clip_max=2147483647, in_dtype=int32, out_dtype=int32)
---------
constant[%61] -> add[%62]
  bit=32, threshold=0.7108252048492432
  SimulatedQuantizeParams(in_scale=1.0, out_scale=1.6637067279390294e-09, clip_min=-2147483647, clip_max=2147483647, in_dtype=float32, out_dtype=int32)
---------
add[%62] -> nn.relu[%63]
  bit=32, threshold=3.518185615539551
  SimulatedQuantizeParams(in_scale=1.6637067e-09, out_scale=1.6637067279390294e-09, clip_min=-2147483647, clip_max=2147483647, in_dtype=int32, out_dtype=int32)
---------
nn.relu[%63] -> nn.conv2d[%65]
  bit=8, threshold=3.063507080078125
  SimulatedQuantizeParams(in_scale=1.6637067e-09, out_scale=0.02393364906311035, clip_min=-127, clip_max=127, in_dtype=int32, out_dtype=int8)
---------
constant[%64] -> nn.conv2d[%65]
  bit=8, threshold=0.7101067304611206
  SimulatedQuantizeParams(in_scale=1.0, out_scale=0.005547708831727505, clip_min=-127, clip_max=127, in_dtype=float32, out_dtype=int8)
---------
nn.conv2d[%65] -> add[%67]
  bit=32, threshold=0.739547073841095
  SimulatedQuantizeParams(in_scale=0.00013277691, out_scale=2.2105455244059158e-09, clip_min=-2147483647, clip_max=2147483647, in_dtype=int32, out_dtype=int32)
---------
constant[%66] -> add[%67]
  bit=32, threshold=0.739547073841095
  SimulatedQuantizeParams(in_scale=1.0, out_scale=2.2105455244059158e-09, clip_min=-2147483647, clip_max=2147483647, in_dtype=float32, out_dtype=int32)
---------
add[%58] -> add[%68]
  bit=32, threshold=4.880053520202637
  SimulatedQuantizeParams(in_scale=8.132826e-10, out_scale=2.2724520043482244e-09, clip_min=-2147483647, clip_max=2147483647, in_dtype=int32, out_dtype=int32)
---------
add[%67] -> add[%68]
  bit=32, threshold=4.880053520202637
  SimulatedQuantizeParams(in_scale=2.2105455e-09, out_scale=2.2724520043482244e-09, clip_min=-2147483647, clip_max=2147483647, in_dtype=int32, out_dtype=int32)
---------
add[%68] -> nn.relu[%69]
  bit=32, threshold=5.2819414138793945
  SimulatedQuantizeParams(in_scale=2.272452e-09, out_scale=2.2724520043482244e-09, clip_min=-2147483647, clip_max=2147483647, in_dtype=int32, out_dtype=int32)
---------
nn.relu[%69] -> nn.conv2d[%71]
  bit=8, threshold=5.2819414138793945
  SimulatedQuantizeParams(in_scale=2.272452e-09, out_scale=0.04126516729593277, clip_min=-127, clip_max=127, in_dtype=int32, out_dtype=int8)
---------
constant[%70] -> nn.conv2d[%71]
  bit=8, threshold=0.3446066081523895
  SimulatedQuantizeParams(in_scale=1.0, out_scale=0.002692239126190543, clip_min=-127, clip_max=127, in_dtype=float32, out_dtype=int8)
---------
nn.conv2d[%71] -> add[%73]
  bit=32, threshold=0.7690892815589905
  SimulatedQuantizeParams(in_scale=0.000111095695, out_scale=1.8623378394977408e-09, clip_min=-2147483647, clip_max=2147483647, in_dtype=int32, out_dtype=int32)
---------
constant[%72] -> add[%73]
  bit=32, threshold=0.7690892815589905
  SimulatedQuantizeParams(in_scale=1.0, out_scale=1.8623378394977408e-09, clip_min=-2147483647, clip_max=2147483647, in_dtype=float32, out_dtype=int32)
---------
add[%73] -> nn.relu[%74]
  bit=32, threshold=3.3673243522644043
  SimulatedQuantizeParams(in_scale=1.8623378e-09, out_scale=1.8623378394977408e-09, clip_min=-2147483647, clip_max=2147483647, in_dtype=int32, out_dtype=int32)
---------
nn.relu[%74] -> nn.conv2d[%76]
  bit=8, threshold=3.3673243522644043
  SimulatedQuantizeParams(in_scale=1.8623378e-09, out_scale=0.02630722150206566, clip_min=-127, clip_max=127, in_dtype=int32, out_dtype=int8)
---------
constant[%75] -> nn.conv2d[%76]
  bit=8, threshold=0.7020171284675598
  SimulatedQuantizeParams(in_scale=1.0, out_scale=0.005484508816152811, clip_min=-127, clip_max=127, in_dtype=float32, out_dtype=int8)
---------
nn.conv2d[%76] -> add[%78]
  bit=32, threshold=1.0121638774871826
  SimulatedQuantizeParams(in_scale=0.00014428218, out_scale=2.6205857484029593e-09, clip_min=-2147483647, clip_max=2147483647, in_dtype=int32, out_dtype=int32)
---------
constant[%77] -> add[%78]
  bit=32, threshold=1.0121638774871826
  SimulatedQuantizeParams(in_scale=1.0, out_scale=2.6205857484029593e-09, clip_min=-2147483647, clip_max=2147483647, in_dtype=float32, out_dtype=int32)
---------
nn.relu[%69] -> add[%79]
  bit=32, threshold=5.401540279388428
  SimulatedQuantizeParams(in_scale=2.272452e-09, out_scale=2.515288199944621e-09, clip_min=-2147483647, clip_max=2147483647, in_dtype=int32, out_dtype=int32)
---------
add[%78] -> add[%79]
  bit=32, threshold=5.401540279388428
  SimulatedQuantizeParams(in_scale=2.6205857e-09, out_scale=2.515288199944621e-09, clip_min=-2147483647, clip_max=2147483647, in_dtype=int32, out_dtype=int32)
---------
add[%79] -> nn.relu[%80]
  bit=32, threshold=6.305295467376709
  SimulatedQuantizeParams(in_scale=2.5152882e-09, out_scale=2.515288199944621e-09, clip_min=-2147483647, clip_max=2147483647, in_dtype=int32, out_dtype=int32)
---------
nn.relu[%80] -> nn.conv2d[%82]
  bit=8, threshold=6.305295467376709
  SimulatedQuantizeParams(in_scale=2.5152882e-09, out_scale=0.04926012083888054, clip_min=-127, clip_max=127, in_dtype=int32, out_dtype=int8)
---------
constant[%81] -> nn.conv2d[%82]
  bit=8, threshold=1.078283667564392
  SimulatedQuantizeParams(in_scale=1.0, out_scale=0.008424091152846813, clip_min=-127, clip_max=127, in_dtype=float32, out_dtype=int8)
---------
nn.conv2d[%82] -> add[%84]
  bit=32, threshold=0.6368754506111145
  SimulatedQuantizeParams(in_scale=0.00041497176, out_scale=1.0105617453959326e-09, clip_min=-2147483647, clip_max=2147483647, in_dtype=int32, out_dtype=int32)
---------
constant[%83] -> add[%84]
  bit=32, threshold=0.6368754506111145
  SimulatedQuantizeParams(in_scale=1.0, out_scale=1.0105617453959326e-09, clip_min=-2147483647, clip_max=2147483647, in_dtype=float32, out_dtype=int32)
---------
nn.relu[%80] -> nn.conv2d[%86]
  bit=8, threshold=6.305295467376709
  SimulatedQuantizeParams(in_scale=2.5152882e-09, out_scale=0.04926012083888054, clip_min=-127, clip_max=127, in_dtype=int32, out_dtype=int8)
---------
constant[%85] -> nn.conv2d[%86]
  bit=8, threshold=0.34631189703941345
  SimulatedQuantizeParams(in_scale=1.0, out_scale=0.0027055616956204176, clip_min=-127, clip_max=127, in_dtype=float32, out_dtype=int8)
---------
nn.conv2d[%86] -> add[%88]
  bit=32, threshold=0.6367926597595215
  SimulatedQuantizeParams(in_scale=0.00013327629, out_scale=1.6226839871791299e-09, clip_min=-2147483647, clip_max=2147483647, in_dtype=int32, out_dtype=int32)
---------
constant[%87] -> add[%88]
  bit=32, threshold=0.6367926597595215
  SimulatedQuantizeParams(in_scale=1.0, out_scale=1.6226839871791299e-09, clip_min=-2147483647, clip_max=2147483647, in_dtype=float32, out_dtype=int32)
---------
add[%88] -> nn.relu[%89]
  bit=32, threshold=3.3883557319641113
  SimulatedQuantizeParams(in_scale=1.622684e-09, out_scale=1.6226839871791299e-09, clip_min=-2147483647, clip_max=2147483647, in_dtype=int32, out_dtype=int32)
---------
nn.relu[%89] -> nn.conv2d[%91]
  bit=8, threshold=3.3883557319641113
  SimulatedQuantizeParams(in_scale=1.622684e-09, out_scale=0.02647152915596962, clip_min=-127, clip_max=127, in_dtype=int32, out_dtype=int8)
---------
constant[%90] -> nn.conv2d[%91]
  bit=8, threshold=1.3083791732788086
  SimulatedQuantizeParams(in_scale=1.0, out_scale=0.010221712291240692, clip_min=-127, clip_max=127, in_dtype=float32, out_dtype=int8)
---------
nn.conv2d[%91] -> add[%93]
  bit=32, threshold=1.3365514278411865
  SimulatedQuantizeParams(in_scale=0.00027058437, out_scale=2.4093778083766892e-09, clip_min=-2147483647, clip_max=2147483647, in_dtype=int32, out_dtype=int32)
---------
constant[%92] -> add[%93]
  bit=32, threshold=1.3365514278411865
  SimulatedQuantizeParams(in_scale=1.0, out_scale=2.4093778083766892e-09, clip_min=-2147483647, clip_max=2147483647, in_dtype=float32, out_dtype=int32)
---------
add[%84] -> add[%94]
  bit=32, threshold=5.372775077819824
  SimulatedQuantizeParams(in_scale=1.0105617e-09, out_scale=2.5018933591525183e-09, clip_min=-2147483647, clip_max=2147483647, in_dtype=int32, out_dtype=int32)
---------
add[%93] -> add[%94]
  bit=32, threshold=5.372775077819824
  SimulatedQuantizeParams(in_scale=2.4093778e-09, out_scale=2.5018933591525183e-09, clip_min=-2147483647, clip_max=2147483647, in_dtype=int32, out_dtype=int32)
---------
add[%94] -> nn.relu[%95]
  bit=32, threshold=6.506329536437988
  SimulatedQuantizeParams(in_scale=2.5018934e-09, out_scale=2.5018933591525183e-09, clip_min=-2147483647, clip_max=2147483647, in_dtype=int32, out_dtype=int32)
---------
nn.relu[%95] -> nn.conv2d[%97]
  bit=8, threshold=6.506329536437988
  SimulatedQuantizeParams(in_scale=2.5018934e-09, out_scale=0.05083069950342178, clip_min=-127, clip_max=127, in_dtype=int32, out_dtype=int8)
---------
constant[%96] -> nn.conv2d[%97]
  bit=8, threshold=0.25089654326438904
  SimulatedQuantizeParams(in_scale=1.0, out_scale=0.0019601292442530394, clip_min=-127, clip_max=127, in_dtype=float32, out_dtype=int8)
---------
nn.conv2d[%97] -> add[%99]
  bit=32, threshold=0.43459564447402954
  SimulatedQuantizeParams(in_scale=9.963474e-05, out_scale=1.6887717890767817e-09, clip_min=-2147483647, clip_max=2147483647, in_dtype=int32, out_dtype=int32)
---------
constant[%98] -> add[%99]
  bit=32, threshold=0.43459564447402954
  SimulatedQuantizeParams(in_scale=1.0, out_scale=1.6887717890767817e-09, clip_min=-2147483647, clip_max=2147483647, in_dtype=float32, out_dtype=int32)
---------
add[%99] -> nn.relu[%100]
  bit=32, threshold=3.314180850982666
  SimulatedQuantizeParams(in_scale=1.6887718e-09, out_scale=1.6887717890767817e-09, clip_min=-2147483647, clip_max=2147483647, in_dtype=int32, out_dtype=int32)
---------
nn.relu[%100] -> nn.conv2d[%102]
  bit=8, threshold=2.3603878021240234
  SimulatedQuantizeParams(in_scale=1.6887718e-09, out_scale=0.018440529704093933, clip_min=-127, clip_max=127, in_dtype=int32, out_dtype=int8)
---------
constant[%101] -> nn.conv2d[%102]
  bit=8, threshold=4.82754373550415
  SimulatedQuantizeParams(in_scale=1.0, out_scale=0.037715185433626175, clip_min=-127, clip_max=127, in_dtype=float32, out_dtype=int8)
---------
nn.conv2d[%102] -> add[%104]
  bit=32, threshold=4.27557897567749
  SimulatedQuantizeParams(in_scale=0.000695488, out_scale=1.524445814027331e-08, clip_min=-2147483647, clip_max=2147483647, in_dtype=int32, out_dtype=int32)
---------
constant[%103] -> add[%104]
  bit=32, threshold=4.27557897567749
  SimulatedQuantizeParams(in_scale=1.0, out_scale=1.524445814027331e-08, clip_min=-2147483647, clip_max=2147483647, in_dtype=float32, out_dtype=int32)
---------
nn.relu[%95] -> add[%105]
  bit=32, threshold=33.22578430175781
  SimulatedQuantizeParams(in_scale=2.5018934e-09, out_scale=1.5471961489765818e-08, clip_min=-2147483647, clip_max=2147483647, in_dtype=int32, out_dtype=int32)
---------
add[%104] -> add[%105]
  bit=32, threshold=33.22578430175781
  SimulatedQuantizeParams(in_scale=1.5244458e-08, out_scale=1.5471961489765818e-08, clip_min=-2147483647, clip_max=2147483647, in_dtype=int32, out_dtype=int32)
---------
add[%105] -> nn.relu[%106]
  bit=32, threshold=35.74312210083008
  SimulatedQuantizeParams(in_scale=1.5471961e-08, out_scale=1.5471961489765818e-08, clip_min=-2147483647, clip_max=2147483647, in_dtype=int32, out_dtype=int32)
---------
nn.relu[%106] -> nn.global_avg_pool2d[%107]
  not quantized
  SimulatedQuantizeParams(in_scale=1.5471961e-08, out_scale=1.0, clip_min=nan, clip_max=nan, in_dtype=int32, out_dtype=float32)
---------
nn.global_avg_pool2d[%107] -> nn.batch_flatten[%108]
  not quantized
  SimulatedQuantizeParams(in_scale=1.0, out_scale=1.0, clip_min=nan, clip_max=nan, in_dtype=float32, out_dtype=float32)
---------
nn.batch_flatten[%108] -> nn.dense[%110]
  not quantized
  SimulatedQuantizeParams(in_scale=1.0, out_scale=1.0, clip_min=nan, clip_max=nan, in_dtype=float32, out_dtype=float32)
---------
constant[%109] -> nn.dense[%110]
  not quantized
  SimulatedQuantizeParams(in_scale=1.0, out_scale=1.0, clip_min=nan, clip_max=nan, in_dtype=float32, out_dtype=float32)
---------
nn.dense[%110] -> add[%112]
  not quantized
  SimulatedQuantizeParams(in_scale=1.0, out_scale=1.0, clip_min=nan, clip_max=nan, in_dtype=float32, out_dtype=float32)
---------
constant[%111] -> add[%112]
  not quantized
  SimulatedQuantizeParams(in_scale=1.0, out_scale=1.0, clip_min=nan, clip_max=nan, in_dtype=float32, out_dtype=float32)
---------
add[%112] -> OUT
  SimulatedQuantizeParams(in_scale=1.0, out_scale=1.0, clip_min=nan, clip_max=nan, in_dtype=float32, out_dtype=float32)
DEBUG:autotvm:Finish loading 688 records
INFO:compile_engine:Use implementation simulated_quantize.cuda for op nn.simulated_quantize
INFO:compile_engine:Use implementation simulated_quantize.cuda for op nn.simulated_quantize
INFO:compile_engine:Use implementation simulated_quantize.cuda for op nn.simulated_quantize
INFO:compile_engine:Use implementation simulated_quantize.cuda for op nn.simulated_quantize
INFO:compile_engine:Use implementation simulated_quantize.cuda for op nn.simulated_quantize
INFO:compile_engine:Use implementation simulated_quantize.cuda for op nn.simulated_quantize
INFO:compile_engine:Use implementation simulated_quantize.cuda for op nn.simulated_quantize
INFO:compile_engine:Use implementation simulated_quantize.cuda for op nn.simulated_quantize
INFO:compile_engine:Use implementation simulated_quantize.cuda for op nn.simulated_quantize
INFO:compile_engine:Use implementation simulated_quantize.cuda for op nn.simulated_quantize
INFO:compile_engine:Use implementation simulated_quantize.cuda for op nn.simulated_quantize
INFO:compile_engine:Use implementation simulated_quantize.cuda for op nn.simulated_quantize
INFO:compile_engine:Use implementation simulated_quantize.cuda for op nn.simulated_quantize
INFO:compile_engine:Use implementation simulated_quantize.cuda for op nn.simulated_quantize
INFO:compile_engine:Use implementation simulated_quantize.cuda for op nn.simulated_quantize
INFO:compile_engine:Use implementation simulated_quantize.cuda for op nn.simulated_quantize
INFO:compile_engine:Use implementation simulated_quantize.cuda for op nn.simulated_quantize
INFO:compile_engine:Use implementation simulated_quantize.cuda for op nn.simulated_quantize
INFO:compile_engine:Use implementation simulated_quantize.cuda for op nn.simulated_quantize
INFO:compile_engine:Use implementation simulated_quantize.cuda for op nn.simulated_quantize
INFO:compile_engine:Use implementation simulated_quantize.cuda for op nn.simulated_quantize
INFO:compile_engine:Use implementation simulated_quantize.cuda for op nn.simulated_quantize
INFO:compile_engine:Use implementation simulated_quantize.cuda for op nn.simulated_quantize
INFO:compile_engine:Use implementation simulated_quantize.cuda for op nn.simulated_quantize
INFO:compile_engine:Use implementation simulated_quantize.cuda for op nn.simulated_quantize
INFO:compile_engine:Use implementation simulated_quantize.cuda for op nn.simulated_quantize
INFO:compile_engine:Use implementation simulated_quantize.cuda for op nn.simulated_quantize
INFO:compile_engine:Use implementation simulated_quantize.cuda for op nn.simulated_quantize
INFO:compile_engine:Use implementation simulated_quantize.cuda for op nn.simulated_quantize
INFO:compile_engine:Use implementation simulated_quantize.cuda for op nn.simulated_quantize
INFO:compile_engine:Use implementation simulated_quantize.cuda for op nn.simulated_quantize
measures
Measure(version=0.1, strategy=Strategy(model_hash=-2157293650320921168, bits=[8, 8, 32, 32, 32, 32, 8, 8, 32, 32, 32, 8, 8, 32, 32, 32, 32, 32, 8, 8, 32, 32, 32, 8, 8, 32, 32, 32, 32, 32, 8, 8, 32, 32, 8, 8, 32, 32, 32, 8, 8, 32, 32, 32, 32, 32, 8, 8, 32, 32, 32, 8, 8, 32, 32, 32, 32, 32, 8, 8, 32, 32, 8, 8, 32, 32, 32, 8, 8, 32, 32, 32, 32, 32, 8, 8, 32, 32, 32, 8, 8, 32, 32, 32, 32, 32, 8, 8, 32, 32, 8, 8, 32, 32, 32, 8, 8, 32, 32, 32, 32, 32, 8, 8, 32, 32, 32, 8, 8, 32, 32, 32, 32, 32], thresholds=[… ), result=MeasureResult(accuracy=0.75, kl_distance=None))
best_measure
Measure(version=0.1, strategy=Strategy(model_hash=-2157293650320921168, bits=[8, 8, 32, 32, 32, 32, 8, 8, 32, 32, 32, 8, 8, 32, 32, 32, 32, 32, 8, 8, 32, 32, 32, 8, 8, 32, 32, 32, 32, 32, 8, 8, 32, 32, 8, 8, 32, 32, 32, 8, 8, 32, 32, 32, 32, 32, 8, 8, 32, 32, 32, 8, 8, 32, 32, 32, 32, 32, 8, 8, 32, 32, 8, 8, 32, 32, 32, 8, 8, 32, 32, 32, 32, 32, 8, 8, 32, 32, 32, 8, 8, 32, 32, 32, 32, 32, 8, 8, 32, 32, 8, 8, 32, 32, 32, 8, 8, 32, 32, 32, 32, 32, 8, 8, 32, 32, 32, 8, 8, 32, 32, 32, 32, 32], thresholds=[… ), result=MeasureResult(accuracy=0.75, kl_distance=None))
data
constant
nn.conv2d
constant
add
nn.relu
nn.max_pool2d
constant
nn.conv2d
constant
add
nn.relu
constant
nn.conv2d
constant
add
add
nn.relu
constant
nn.conv2d
constant
add
nn.relu
constant
nn.conv2d
constant
add
add
nn.relu
constant
nn.conv2d
constant
add
constant
nn.conv2d
constant
add
nn.relu
constant
nn.conv2d
constant
add
add
nn.relu
constant
nn.conv2d
constant
add
nn.relu
constant
nn.conv2d
constant
add
add
nn.relu
constant
nn.conv2d
constant
add
constant
nn.conv2d
constant
add
nn.relu
constant
nn.conv2d
constant
add
add
nn.relu
constant
nn.conv2d
constant
add
nn.relu
constant
nn.conv2d
constant
add
add
nn.relu
constant
nn.conv2d
constant
add
constant
nn.conv2d
constant
…
INFO:compile_engine:Use implementation injective.cuda for op divide
INFO:compile_engine:Use implementation injective.cuda for op add
INFO:compile_engine:Use implementation injective.cuda for op round
INFO:compile_engine:Use implementation injective.cuda for op cast
INFO:compile_engine:Use implementation injective.cuda for op clip
INFO:compile_engine:Use implementation injective.cuda for op cast
INFO:compile_engine:Use implementation injective.cuda for op cast
INFO:compile_engine:Use implementation injective.cuda for op subtract
INFO:compile_engine:Use implementation injective.cuda for op cast
INFO:compile_engine:Use implementation injective.cuda for op multiply
INFO:compile_engine:Use implementation conv2d_nchw_int8.cuda for op nn.conv2d
INFO:compile_engine:Use implementation injective.cuda for op cast
INFO:compile_engine:Use implementation injective.cuda for op fixed_point_multiply
INFO:compile_engine:Use implementation injective.cuda for op add
INFO:compile_engine:Use implementation injective.cuda for op cast
INFO:compile_engine:Use implementation injective.cuda for op nn.relu
INFO:compile_engine:Use implementation injective.cuda for op cast
INFO:compile_engine:Use implementation injective.cuda for op fixed_point_multiply
INFO:compile_engine:Use implementation conv2d_nchw_int8.cuda for op nn.conv2d
INFO:compile_engine:Use implementation injective.cuda for op cast
INFO:compile_engine:Use implementation injective.cuda for op fixed_point_multiply
INFO:compile_engine:Use implementation injective.cuda for op add
INFO:compile_engine:Use implementation injective.cuda for op cast
INFO:compile_engine:Use implementation injective.cuda for op nn.relu
INFO:compile_engine:Use implementation injective.cuda for op cast
INFO:compile_engine:Use implementation injective.cuda for op fixed_point_multiply
INFO:compile_engine:Use implementation injective.cuda for op clip
INFO:compile_engine:Use implementation injective.cuda for op cast
INFO:compile_engine:Use implementation conv2d_nchw_int8.cuda for op nn.conv2d
INFO:compile_engine:Use implementation injective.cuda for op cast
INFO:compile_engine:Use implementation injective.cuda for op fixed_point_multiply
INFO:compile_engine:Use implementation injective.cuda for op add
INFO:compile_engine:Use implementation injective.cuda for op cast
INFO:compile_engine:Use implementation injective.cuda for op nn.relu
INFO:compile_engine:Use implementation injective.cuda for op cast
INFO:compile_engine:Use implementation injective.cuda for op fixed_point_multiply
INFO:compile_engine:Use implementation conv2d_nchw_int8.cuda for op nn.conv2d
INFO:compile_engine:Use implementation injective.cuda for op cast
INFO:compile_engine:Use implementation injective.cuda for op fixed_point_multiply
INFO:compile_engine:Use implementation injective.cuda for op add
INFO:compile_engine:Use implementation injective.cuda for op cast
INFO:compile_engine:Use implementation injective.cuda for op nn.relu
INFO:compile_engine:Use implementation injective.cuda for op cast
INFO:compile_engine:Use implementation injective.cuda for op fixed_point_multiply
INFO:compile_engine:Use implementation injective.cuda for op clip
INFO:compile_engine:Use implementation injective.cuda for op cast
INFO:compile_engine:Use implementation conv2d_nchw_int8.cuda for op nn.conv2d
INFO:compile_engine:Use implementation injective.cuda for op cast
INFO:compile_engine:Use implementation injective.cuda for op fixed_point_multiply
INFO:compile_engine:Use implementation injective.cuda for op add
INFO:compile_engine:Use implementation injective.cuda for op cast
INFO:compile_engine:Use implementation injective.cuda for op nn.relu
INFO:compile_engine:Use implementation injective.cuda for op cast
INFO:compile_engine:Use implementation injective.cuda for op fixed_point_multiply
INFO:compile_engine:Use implementation injective.cuda for op clip
INFO:compile_engine:Use implementation injective.cuda for op cast
INFO:compile_engine:Use implementation conv2d_nchw_int8.cuda for op nn.conv2d
INFO:compile_engine:Use implementation injective.cuda for op cast
INFO:compile_engine:Use implementation injective.cuda for op fixed_point_multiply
INFO:compile_engine:Use implementation injective.cuda for op add
INFO:compile_engine:Use implementation injective.cuda for op cast
INFO:compile_engine:Use implementation injective.cuda for op nn.relu
INFO:compile_engine:Use implementation injective.cuda for op cast
INFO:compile_engine:Use implementation injective.cuda for op fixed_point_multiply
INFO:compile_engine:Use implementation pool.cuda for op nn.avg_pool2d
INFO:compile_engine:Use implementation injective.cuda for op divide
INFO:compile_engine:Use implementation injective.cuda for op add
INFO:compile_engine:Use implementation injective.cuda for op round
INFO:compile_engine:Use implementation injective.cuda for op cast
INFO:compile_engine:Use implementation injective.cuda for op clip
INFO:compile_engine:Use implementation injective.cuda for op cast
INFO:compile_engine:Use implementation injective.cuda for op cast
INFO:compile_engine:Use implementation injective.cuda for op subtract
INFO:compile_engine:Use implementation injective.cuda for op cast
INFO:compile_engine:Use implementation injective.cuda for op multiply
INFO:compile_engine:Use implementation conv2d_nchw_int8.cuda for op nn.conv2d
INFO:compile_engine:Use implementation injective.cuda for op cast
INFO:compile_engine:Use implementation injective.cuda for op fixed_point_multiply
INFO:compile_engine:Use implementation injective.cuda for op add
INFO:compile_engine:Use implementation injective.cuda for op cast
INFO:compile_engine:Use implementation injective.cuda for op nn.relu
INFO:compile_engine:Use implementation injective.cuda for op cast
INFO:compile_engine:Use implementation conv2d_nchw_int8.cuda for op nn.conv2d
INFO:compile_engine:Use implementation injective.cuda for op cast
INFO:compile_engine:Use implementation injective.cuda for op fixed_point_multiply
INFO:compile_engine:Use implementation injective.cuda for op add
INFO:compile_engine:Use implementation injective.cuda for op cast
INFO:compile_engine:Use implementation injective.cuda for op nn.relu
INFO:compile_engine:Use implementation injective.cuda for op cast
INFO:compile_engine:Use implementation injective.cuda for op fixed_point_multiply
INFO:compile_engine:Use implementation injective.cuda for op clip
INFO:compile_engine:Use implementation injective.cuda for op cast
INFO:compile_engine:Use implementation conv2d_nchw_int8.cuda for op nn.conv2d
INFO:compile_engine:Use implementation injective.cuda for op cast
INFO:compile_engine:Use implementation injective.cuda for op fixed_point_multiply
INFO:compile_engine:Use implementation injective.cuda for op add
INFO:compile_engine:Use implementation injective.cuda for op cast
INFO:compile_engine:Use implementation injective.cuda for op nn.relu
INFO:compile_engine:Use implementation injective.cuda for op cast
INFO:compile_engine:Use implementation injective.cuda for op fixed_point_multiply
INFO:compile_engine:Use implementation injective.cuda for op clip
INFO:compile_engine:Use implementation injective.cuda for op cast
INFO:compile_engine:Use implementation pool.cuda for op nn.max_pool2d
INFO:compile_engine:Use implementation injective.cuda for op cast
INFO:compile_engine:Use implementation injective.cuda for op fixed_point_multiply
INFO:compile_engine:Use implementation injective.cuda for op cast
INFO:compile_engine:Use implementation injective.cuda for op fixed_point_multiply
INFO:compile_engine:Use implementation conv2d_nchw_int8.cuda for op nn.conv2d
INFO:compile_engine:Use implementation injective.cuda for op cast
INFO:compile_engine:Use implementation injective.cuda for op fixed_point_multiply
INFO:compile_engine:Use implementation injective.cuda for op add
INFO:compile_engine:Use implementation injective.cuda for op cast
INFO:compile_engine:Use implementation injective.cuda for op nn.relu
INFO:compile_engine:Use implementation injective.cuda for op cast
INFO:compile_engine:Use implementation injective.cuda for op fixed_point_multiply
INFO:compile_engine:Use implementation conv2d_nchw_int8.cuda for op nn.conv2d
INFO:compile_engine:Use implementation injective.cuda for op cast
INFO:compile_engine:Use implementation injective.cuda for op fixed_point_multiply
INFO:compile_engine:Use implementation injective.cuda for op add
INFO:compile_engine:Use implementation injective.cuda for op cast
INFO:compile_engine:Use implementation injective.cuda for op nn.relu
INFO:compile_engine:Use implementation injective.cuda for op cast
INFO:compile_engine:Use implementation injective.cuda for op fixed_point_multiply
INFO:compile_engine:Use implementation injective.cuda for op clip
INFO:compile_engine:Use implementation injective.cuda for op cast
INFO:compile_engine:Use implementation conv2d_nchw_int8.cuda for op nn.conv2d
INFO:compile_engine:Use implementation injective.cuda for op cast
INFO:compile_engine:Use implementation injective.cuda for op fixed_point_multiply
INFO:compile_engine:Use implementation injective.cuda for op add
INFO:compile_engine:Use implementation injective.cuda for op cast
INFO:compile_engine:Use implementation injective.cuda for op nn.relu
INFO:compile_engine:Use implementation injective.cuda for op cast
INFO:compile_engine:Use implementation injective.cuda for op fixed_point_multiply
INFO:compile_engine:Use implementation injective.cuda for op clip
INFO:compile_engine:Use implementation injective.cuda for op cast
INFO:compile_engine:Use implementation conv2d_nchw_int8.cuda for op nn.conv2d
INFO:compile_engine:Use implementation injective.cuda for op cast
INFO:compile_engine:Use implementation injective.cuda for op fixed_point_multiply
INFO:compile_engine:Use implementation injective.cuda for op add
INFO:compile_engine:Use implementation injective.cuda for op cast
INFO:compile_engine:Use implementation injective.cuda for op nn.relu
INFO:compile_engine:Use implementation injective.cuda for op cast
INFO:compile_engine:Use implementation conv2d_nchw_int8.cuda for op nn.conv2d
INFO:compile_engine:Use implementation injective.cuda for op cast
INFO:compile_engine:Use implementation injective.cuda for op fixed_point_multiply
INFO:compile_engine:Use implementation injective.cuda for op add
INFO:compile_engine:Use implementation injective.cuda for op cast
INFO:compile_engine:Use implementation injective.cuda for op nn.relu
INFO:compile_engine:Use implementation injective.cuda for op cast
INFO:compile_engine:Use implementation injective.cuda for op fixed_point_multiply
INFO:compile_engine:Use implementation injective.cuda for op clip
INFO:compile_engine:Use implementation injective.cuda for op cast
INFO:compile_engine:Use implementation conv2d_nchw_int8.cuda for op nn.conv2d
INFO:compile_engine:Use implementation injective.cuda for op cast
INFO:compile_engine:Use implementation injective.cuda for op fixed_point_multiply
INFO:compile_engine:Use implementation injective.cuda for op add
INFO:compile_engine:Use implementation injective.cuda for op cast
INFO:compile_engine:Use implementation injective.cuda for op nn.relu
INFO:compile_engine:Use implementation injective.cuda for op cast
INFO:compile_engine:Use implementation injective.cuda for op fixed_point_multiply
INFO:compile_engine:Use implementation injective.cuda for op clip
INFO:compile_engine:Use implementation injective.cuda for op cast
INFO:compile_engine:Use implementation conv2d_nchw_int8.cuda for op nn.conv2d
INFO:compile_engine:Use implementation injective.cuda for op cast
INFO:compile_engine:Use implementation injective.cuda for op fixed_point_multiply
INFO:compile_engine:Use implementation injective.cuda for op add
INFO:compile_engine:Use implementation injective.cuda for op cast
INFO:compile_engine:Use implementation injective.cuda for op nn.relu
INFO:compile_engine:Use implementation injective.cuda for op cast
INFO:compile_engine:Use implementation injective.cuda for op fixed_point_multiply
INFO:compile_engine:Use implementation injective.cuda for op clip
INFO:compile_engine:Use implementation injective.cuda for op cast
INFO:compile_engine:Use implementation conv2d_nchw_int8.cuda for op nn.conv2d
INFO:compile_engine:Use implementation injective.cuda for op cast
INFO:compile_engine:Use implementation injective.cuda for op fixed_point_multiply
INFO:compile_engine:Use implementation injective.cuda for op add
INFO:compile_engine:Use implementation injective.cuda for op cast
INFO:compile_engine:Use implementation injective.cuda for op nn.relu
INFO:compile_engine:Use implementation injective.cuda for op cast
INFO:compile_engine:Use implementation injective.cuda for op fixed_point_multiply
INFO:compile_engine:Use implementation injective.cuda for op clip
INFO:compile_engine:Use implementation injective.cuda for op cast
INFO:compile_engine:Use implementation conv2d_nchw_int8.cuda for op nn.conv2d
INFO:compile_engine:Use implementation injective.cuda for op cast
INFO:compile_engine:Use implementation injective.cuda for op fixed_point_multiply
INFO:compile_engine:Use implementation injective.cuda for op add
INFO:compile_engine:Use implementation injective.cuda for op cast
INFO:compile_engine:Use implementation injective.cuda for op nn.relu
INFO:compile_engine:Use implementation injective.cuda for op cast
INFO:compile_engine:Use implementation injective.cuda for op fixed_point_multiply
INFO:compile_engine:Use implementation pool.cuda for op nn.avg_pool2d
INFO:compile_engine:Use implementation injective.cuda for op divide
INFO:compile_engine:Use implementation injective.cuda for op add
INFO:compile_engine:Use implementation injective.cuda for op round
INFO:compile_engine:Use implementation injective.cuda for op cast
INFO:compile_engine:Use implementation injective.cuda for op clip
INFO:compile_engine:Use implementation injective.cuda for op cast
INFO:compile_engine:Use implementation injective.cuda for op cast
INFO:compile_engine:Use implementation injective.cuda for op subtract
INFO:compile_engine:Use implementation injective.cuda for op cast
INFO:compile_engine:Use implementation injective.cuda for op multiply
INFO:compile_engine:Use implementation conv2d_nchw_int8.cuda for op nn.conv2d
INFO:compile_engine:Use implementation injective.cuda for op cast
INFO:compile_engine:Use implementation injective.cuda for op fixed_point_multiply
INFO:compile_engine:Use implementation injective.cuda for op add
INFO:compile_engine:Use implementation injective.cuda for op cast
INFO:compile_engine:Use implementation injective.cuda for op nn.relu
INFO:compile_engine:Use implementation injective.cuda for op cast
INFO:compile_engine:Use implementation injective.cuda for op fixed_point_multiply
INFO:compile_engine:Use implementation conv2d_nchw_int8.cuda for op nn.conv2d
INFO:compile_engine:Use implementation injective.cuda for op cast
INFO:compile_engine:Use implementation injective.cuda for op fixed_point_multiply
INFO:compile_engine:Use implementation injective.cuda for op add
INFO:compile_engine:Use implementation injective.cuda for op cast
INFO:compile_engine:Use implementation injective.cuda for op nn.relu
INFO:compile_engine:Use implementation injective.cuda for op cast
INFO:compile_engine:Use implementation injective.cuda for op fixed_point_multiply
INFO:compile_engine:Use implementation injective.cuda for op clip
INFO:compile_engine:Use implementation injective.cuda for op cast
INFO:compile_engine:Use implementation conv2d_nchw_int8.cuda for op nn.conv2d
INFO:compile_engine:Use implementation injective.cuda for op cast
INFO:compile_engine:Use implementation injective.cuda for op fixed_point_multiply
INFO:compile_engine:Use implementation injective.cuda for op add
INFO:compile_engine:Use implementation injective.cuda for op cast
INFO:compile_engine:Use implementation injective.cuda for op nn.relu
INFO:compile_engine:Use implementation injective.cuda for op cast
INFO:compile_engine:Use implementation injective.cuda for op fixed_point_multiply
INFO:compile_engine:Use implementation injective.cuda for op clip
INFO:compile_engine:Use implementation injective.cuda for op cast
INFO:compile_engine:Use implementation conv2d_nchw_int8.cuda for op nn.conv2d
INFO:compile_engine:Use implementation injective.cuda for op cast
INFO:compile_engine:Use implementation injective.cuda for op fixed_point_multiply
INFO:compile_engine:Use implementation injective.cuda for op add
INFO:compile_engine:Use implementation injective.cuda for op cast
INFO:compile_engine:Use implementation injective.cuda for op nn.relu
INFO:compile_engine:Use implementation injective.cuda for op cast
INFO:compile_engine:Use implementation conv2d_nchw_int8.cuda for op nn.conv2d
INFO:compile_engine:Use implementation injective.cuda for op cast
INFO:compile_engine:Use implementation injective.cuda for op fixed_point_multiply
INFO:compile_engine:Use implementation injective.cuda for op add
INFO:compile_engine:Use implementation injective.cuda for op cast
INFO:compile_engine:Use implementation injective.cuda for op nn.relu
INFO:compile_engine:Use implementation injective.cuda for op cast
INFO:compile_engine:Use implementation injective.cuda for op fixed_point_multiply
INFO:compile_engine:Use implementation injective.cuda for op clip
INFO:compile_engine:Use implementation injective.cuda for op cast
INFO:compile_engine:Use implementation conv2d_nchw_int8.cuda for op nn.conv2d
INFO:compile_engine:Use implementation injective.cuda for op cast
INFO:compile_engine:Use implementation injective.cuda for op fixed_point_multiply
INFO:compile_engine:Use implementation injective.cuda for op add
INFO:compile_engine:Use implementation injective.cuda for op cast
INFO:compile_engine:Use implementation injective.cuda for op nn.relu
INFO:compile_engine:Use implementation injective.cuda for op cast
INFO:compile_engine:Use implementation injective.cuda for op fixed_point_multiply
INFO:compile_engine:Use implementation injective.cuda for op clip
INFO:compile_engine:Use implementation injective.cuda for op cast
INFO:compile_engine:Use implementation conv2d_nchw_int8.cuda for op nn.conv2d
INFO:compile_engine:Use implementation injective.cuda for op cast
INFO:compile_engine:Use implementation injective.cuda for op fixed_point_multiply
INFO:compile_engine:Use implementation injective.cuda for op add
INFO:compile_engine:Use implementation injective.cuda for op cast
INFO:compile_engine:Use implementation injective.cuda for op nn.relu
INFO:compile_engine:Use implementation injective.cuda for op cast
INFO:compile_engine:Use implementation injective.cuda for op fixed_point_multiply
INFO:compile_engine:Use implementation injective.cuda for op clip
INFO:compile_engine:Use implementation injective.cuda for op cast
INFO:compile_engine:Use implementation conv2d_nchw_int8.cuda for op nn.conv2d
INFO:compile_engine:Use implementation injective.cuda for op cast
INFO:compile_engine:Use implementation injective.cuda for op fixed_point_multiply
INFO:compile_engine:Use implementation injective.cuda for op add
INFO:compile_engine:Use implementation injective.cuda for op cast
INFO:compile_engine:Use implementation injective.cuda for op nn.relu
INFO:compile_engine:Use implementation injective.cuda for op cast
INFO:compile_engine:Use implementation injective.cuda for op fixed_point_multiply
INFO:compile_engine:Use implementation injective.cuda for op clip
INFO:compile_engine:Use implementation injective.cuda for op cast
INFO:compile_engine:Use implementation conv2d_nchw_int8.cuda for op nn.conv2d
INFO:compile_engine:Use implementation injective.cuda for op cast
INFO:compile_engine:Use implementation injective.cuda for op fixed_point_multiply
INFO:compile_engine:Use implementation injective.cuda for op add
INFO:compile_engine:Use implementation injective.cuda for op cast
INFO:compile_engine:Use implementation injective.cuda for op nn.relu
INFO:compile_engine:Use implementation injective.cuda for op cast
INFO:compile_engine:Use implementation injective.cuda for op fixed_point_multiply
INFO:compile_engine:Use implementation pool.cuda for op nn.avg_pool2d
INFO:compile_engine:Use implementation injective.cuda for op divide
INFO:compile_engine:Use implementation injective.cuda for op add
INFO:compile_engine:Use implementation injective.cuda for op round
INFO:compile_engine:Use implementation injective.cuda for op cast
INFO:compile_engine:Use implementation injective.cuda for op clip
INFO:compile_engine:Use implementation injective.cuda for op cast
INFO:compile_engine:Use implementation injective.cuda for op cast
INFO:compile_engine:Use implementation injective.cuda for op subtract
INFO:compile_engine:Use implementation injective.cuda for op cast
INFO:compile_engine:Use implementation injective.cuda for op multiply
INFO:compile_engine:Use implementation conv2d_nchw_int8.cuda for op nn.conv2d
INFO:compile_engine:Use implementation injective.cuda for op cast
INFO:compile_engine:Use implementation injective.cuda for op fixed_point_multiply
INFO:compile_engine:Use implementation injective.cuda for op add
INFO:compile_engine:Use implementation injective.cuda for op cast
INFO:compile_engine:Use implementation injective.cuda for op nn.relu
INFO:compile_engine:Use implementation injective.cuda for op cast
INFO:compile_engine:Use implementation injective.cuda for op fixed_point_multiply
INFO:compile_engine:Use implementation conv2d_nchw_int8.cuda for op nn.conv2d
INFO:compile_engine:Use implementation injective.cuda for op cast
INFO:compile_engine:Use implementation injective.cuda for op fixed_point_multiply
INFO:compile_engine:Use implementation injective.cuda for op add
INFO:compile_engine:Use implementation injective.cuda for op cast
INFO:compile_engine:Use implementation injective.cuda for op nn.relu
INFO:compile_engine:Use implementation injective.cuda for op cast
INFO:compile_engine:Use implementation injective.cuda for op fixed_point_multiply
INFO:compile_engine:Use implementation injective.cuda for op clip
INFO:compile_engine:Use implementation injective.cuda for op cast
INFO:compile_engine:Use implementation conv2d_nchw_int8.cuda for op nn.conv2d
INFO:compile_engine:Use implementation injective.cuda for op cast
INFO:compile_engine:Use implementation injective.cuda for op fixed_point_multiply
INFO:compile_engine:Use implementation injective.cuda for op add
INFO:compile_engine:Use implementation injective.cuda for op cast
INFO:compile_engine:Use implementation injective.cuda for op nn.relu
INFO:compile_engine:Use implementation injective.cuda for op cast
INFO:compile_engine:Use implementation injective.cuda for op fixed_point_multiply
INFO:compile_engine:Use implementation injective.cuda for op clip
INFO:compile_engine:Use implementation injective.cuda for op cast
INFO:compile_engine:Use implementation conv2d_nchw_int8.cuda for op nn.conv2d
INFO:compile_engine:Use implementation injective.cuda for op cast
INFO:compile_engine:Use implementation injective.cuda for op fixed_point_multiply
INFO:compile_engine:Use implementation injective.cuda for op add
INFO:compile_engine:Use implementation injective.cuda for op cast
INFO:compile_engine:Use implementation injective.cuda for op nn.relu
INFO:compile_engine:Use implementation injective.cuda for op cast
INFO:compile_engine:Use implementation injective.cuda for op fixed_point_multiply
INFO:compile_engine:Use implementation conv2d_nchw_int8.cuda for op nn.conv2d
INFO:compile_engine:Use implementation injective.cuda for op cast
INFO:compile_engine:Use implementation injective.cuda for op fixed_point_multiply
INFO:compile_engine:Use implementation injective.cuda for op add
INFO:compile_engine:Use implementation injective.cuda for op cast
INFO:compile_engine:Use implementation injective.cuda for op nn.relu
INFO:compile_engine:Use implementation injective.cuda for op cast
INFO:compile_engine:Use implementation injective.cuda for op fixed_point_multiply
INFO:compile_engine:Use implementation injective.cuda for op clip
INFO:compile_engine:Use implementation injective.cuda for op cast
INFO:compile_engine:Use implementation conv2d_nchw_int8.cuda for op nn.conv2d
INFO:compile_engine:Use implementation injective.cuda for op cast
INFO:compile_engine:Use implementation injective.cuda for op fixed_point_multiply
INFO:compile_engine:Use implementation injective.cuda for op add
INFO:compile_engine:Use implementation injective.cuda for op cast
INFO:compile_engine:Use implementation injective.cuda for op nn.relu
INFO:compile_engine:Use implementation injective.cuda for op cast
INFO:compile_engine:Use implementation injective.cuda for op fixed_point_multiply
INFO:compile_engine:Use implementation injective.cuda for op clip
INFO:compile_engine:Use implementation injective.cuda for op cast
INFO:compile_engine:Use implementation conv2d_nchw_int8.cuda for op nn.conv2d
INFO:compile_engine:Use implementation injective.cuda for op cast
INFO:compile_engine:Use implementation injective.cuda for op fixed_point_multiply
INFO:compile_engine:Use implementation injective.cuda for op add
INFO:compile_engine:Use implementation injective.cuda for op cast
INFO:compile_engine:Use implementation injective.cuda for op nn.relu
INFO:compile_engine:Use implementation injective.cuda for op cast
INFO:compile_engine:Use implementation injective.cuda for op fixed_point_multiply
INFO:compile_engine:Use implementation injective.cuda for op clip
INFO:compile_engine:Use implementation injective.cuda for op cast
INFO:compile_engine:Use implementation conv2d_nchw_int8.cuda for op nn.conv2d
INFO:compile_engine:Use implementation injective.cuda for op cast
INFO:compile_engine:Use implementation injective.cuda for op fixed_point_multiply
INFO:compile_engine:Use implementation injective.cuda for op add
INFO:compile_engine:Use implementation injective.cuda for op cast
INFO:compile_engine:Use implementation injective.cuda for op nn.relu
INFO:compile_engine:Use implementation injective.cuda for op cast
INFO:compile_engine:Use implementation injective.cuda for op fixed_point_multiply
INFO:compile_engine:Use implementation injective.cuda for op clip
INFO:compile_engine:Use implementation injective.cuda for op cast
INFO:compile_engine:Use implementation conv2d_nchw_int8.cuda for op nn.conv2d
INFO:compile_engine:Use implementation injective.cuda for op cast
INFO:compile_engine:Use implementation injective.cuda for op fixed_point_multiply
INFO:compile_engine:Use implementation injective.cuda for op add
INFO:compile_engine:Use implementation injective.cuda for op cast
INFO:compile_engine:Use implementation injective.cuda for op nn.relu
INFO:compile_engine:Use implementation injective.cuda for op cast
INFO:compile_engine:Use implementation injective.cuda for op fixed_point_multiply
INFO:compile_engine:Use implementation pool.cuda for op nn.avg_pool2d
INFO:compile_engine:Use implementation injective.cuda for op divide
INFO:compile_engine:Use implementation injective.cuda for op add
INFO:compile_engine:Use implementation injective.cuda for op round
INFO:compile_engine:Use implementation injective.cuda for op cast
INFO:compile_engine:Use implementation injective.cuda for op clip
INFO:compile_engine:Use implementation injective.cuda for op cast
INFO:compile_engine:Use implementation injective.cuda for op cast
INFO:compile_engine:Use implementation injective.cuda for op subtract
INFO:compile_engine:Use implementation injective.cuda for op cast
INFO:compile_engine:Use implementation injective.cuda for op multiply
INFO:compile_engine:Use implementation conv2d_nchw_int8.cuda for op nn.conv2d
INFO:compile_engine:Use implementation injective.cuda for op cast
INFO:compile_engine:Use implementation injective.cuda for op fixed_point_multiply
INFO:compile_engine:Use implementation injective.cuda for op add
INFO:compile_engine:Use implementation injective.cuda for op cast
INFO:compile_engine:Use implementation injective.cuda for op nn.relu
INFO:compile_engine:Use implementation injective.cuda for op cast
INFO:compile_engine:Use implementation injective.cuda for op fixed_point_multiply
INFO:compile_engine:Use implementation conv2d_nchw_int8.cuda for op nn.conv2d
INFO:compile_engine:Use implementation injective.cuda for op cast
INFO:compile_engine:Use implementation injective.cuda for op fixed_point_multiply
INFO:compile_engine:Use implementation injective.cuda for op add
INFO:compile_engine:Use implementation injective.cuda for op cast
INFO:compile_engine:Use implementation injective.cuda for op nn.relu
INFO:compile_engine:Use implementation injective.cuda for op cast
INFO:compile_engine:Use implementation injective.cuda for op fixed_point_multiply
INFO:compile_engine:Use implementation injective.cuda for op clip
INFO:compile_engine:Use implementation injective.cuda for op cast
INFO:compile_engine:Use implementation conv2d_nchw_int8.cuda for op nn.conv2d
INFO:compile_engine:Use implementation injective.cuda for op cast
INFO:compile_engine:Use implementation injective.cuda for op fixed_point_multiply
INFO:compile_engine:Use implementation injective.cuda for op add
INFO:compile_engine:Use implementation injective.cuda for op cast
INFO:compile_engine:Use implementation injective.cuda for op nn.relu
INFO:compile_engine:Use implementation injective.cuda for op cast
INFO:compile_engine:Use implementation injective.cuda for op fixed_point_multiply
INFO:compile_engine:Use implementation injective.cuda for op clip
INFO:compile_engine:Use implementation injective.cuda for op cast
INFO:compile_engine:Use implementation conv2d_nchw_int8.cuda for op nn.conv2d
INFO:compile_engine:Use implementation injective.cuda for op cast
INFO:compile_engine:Use implementation injective.cuda for op fixed_point_multiply
INFO:compile_engine:Use implementation injective.cuda for op add
INFO:compile_engine:Use implementation injective.cuda for op cast
INFO:compile_engine:Use implementation injective.cuda for op nn.relu
INFO:compile_engine:Use implementation injective.cuda for op cast
INFO:compile_engine:Use implementation injective.cuda for op fixed_point_multiply
INFO:compile_engine:Use implementation conv2d_nchw_int8.cuda for op nn.conv2d
INFO:compile_engine:Use implementation injective.cuda for op cast
INFO:compile_engine:Use implementation injective.cuda for op fixed_point_multiply
INFO:compile_engine:Use implementation injective.cuda for op add
INFO:compile_engine:Use implementation injective.cuda for op cast
INFO:compile_engine:Use implementation injective.cuda for op nn.relu
INFO:compile_engine:Use implementation injective.cuda for op cast
INFO:compile_engine:Use implementation injective.cuda for op fixed_point_multiply
INFO:compile_engine:Use implementation injective.cuda for op clip
INFO:compile_engine:Use implementation injective.cuda for op cast
INFO:compile_engine:Use implementation conv2d_nchw_int8.cuda for op nn.conv2d
INFO:compile_engine:Use implementation injective.cuda for op cast
INFO:compile_engine:Use implementation injective.cuda for op fixed_point_multiply
INFO:compile_engine:Use implementation injective.cuda for op add
INFO:compile_engine:Use implementation injective.cuda for op cast
INFO:compile_engine:Use implementation injective.cuda for op nn.relu
INFO:compile_engine:Use implementation injective.cuda for op cast
INFO:compile_engine:Use implementation injective.cuda for op fixed_point_multiply
INFO:compile_engine:Use implementation injective.cuda for op clip
INFO:compile_engine:Use implementation injective.cuda for op cast
INFO:compile_engine:Use implementation conv2d_nchw_int8.cuda for op nn.conv2d
INFO:compile_engine:Use implementation injective.cuda for op cast
INFO:compile_engine:Use implementation injective.cuda for op fixed_point_multiply
INFO:compile_engine:Use implementation injective.cuda for op add
INFO:compile_engine:Use implementation injective.cuda for op cast
INFO:compile_engine:Use implementation injective.cuda for op nn.relu
INFO:compile_engine:Use implementation injective.cuda for op cast
INFO:compile_engine:Use implementation injective.cuda for op fixed_point_multiply
INFO:compile_engine:Use implementation injective.cuda for op clip
INFO:compile_engine:Use implementation injective.cuda for op cast
INFO:compile_engine:Use implementation conv2d_nchw_int8.cuda for op nn.conv2d
INFO:compile_engine:Use implementation injective.cuda for op cast
INFO:compile_engine:Use implementation injective.cuda for op fixed_point_multiply
INFO:compile_engine:Use implementation injective.cuda for op add
INFO:compile_engine:Use implementation injective.cuda for op cast
INFO:compile_engine:Use implementation injective.cuda for op nn.relu
INFO:compile_engine:Use implementation injective.cuda for op cast
INFO:compile_engine:Use implementation injective.cuda for op fixed_point_multiply
INFO:compile_engine:Use implementation injective.cuda for op clip
INFO:compile_engine:Use implementation injective.cuda for op cast
INFO:compile_engine:Use implementation conv2d_nchw_int8.cuda for op nn.conv2d
INFO:compile_engine:Use implementation injective.cuda for op cast
INFO:compile_engine:Use implementation injective.cuda for op fixed_point_multiply
INFO:compile_engine:Use implementation injective.cuda for op add
INFO:compile_engine:Use implementation injective.cuda for op cast
INFO:compile_engine:Use implementation injective.cuda for op nn.relu
INFO:compile_engine:Use implementation injective.cuda for op cast
INFO:compile_engine:Use implementation injective.cuda for op fixed_point_multiply
INFO:compile_engine:Use implementation pool.cuda for op nn.avg_pool2d
INFO:compile_engine:Use implementation injective.cuda for op divide
INFO:compile_engine:Use implementation injective.cuda for op add
INFO:compile_engine:Use implementation injective.cuda for op round
INFO:compile_engine:Use implementation injective.cuda for op cast
INFO:compile_engine:Use implementation injective.cuda for op clip
INFO:compile_engine:Use implementation injective.cuda for op cast
INFO:compile_engine:Use implementation injective.cuda for op cast
INFO:compile_engine:Use implementation injective.cuda for op subtract
INFO:compile_engine:Use implementation injective.cuda for op cast
INFO:compile_engine:Use implementation injective.cuda for op multiply
INFO:compile_engine:Use implementation conv2d_nchw_int8.cuda for op nn.conv2d
INFO:compile_engine:Use implementation injective.cuda for op cast
INFO:compile_engine:Use implementation injective.cuda for op fixed_point_multiply
INFO:compile_engine:Use implementation injective.cuda for op add
INFO:compile_engine:Use implementation injective.cuda for op cast
INFO:compile_engine:Use implementation injective.cuda for op nn.relu
INFO:compile_engine:Use implementation injective.cuda for op cast
INFO:compile_engine:Use implementation injective.cuda for op fixed_point_multiply
INFO:compile_engine:Use implementation conv2d_nchw_int8.cuda for op nn.conv2d
INFO:compile_engine:Use implementation injective.cuda for op cast
INFO:compile_engine:Use implementation injective.cuda for op fixed_point_multiply
INFO:compile_engine:Use implementation injective.cuda for op add
INFO:compile_engine:Use implementation injective.cuda for op cast
INFO:compile_engine:Use implementation injective.cuda for op nn.relu
INFO:compile_engine:Use implementation injective.cuda for op cast
INFO:compile_engine:Use implementation injective.cuda for op fixed_point_multiply
INFO:compile_engine:Use implementation injective.cuda for op clip
INFO:compile_engine:Use implementation injective.cuda for op cast
INFO:compile_engine:Use implementation conv2d_nchw_int8.cuda for op nn.conv2d
INFO:compile_engine:Use implementation injective.cuda for op cast
INFO:compile_engine:Use implementation injective.cuda for op fixed_point_multiply
INFO:compile_engine:Use implementation injective.cuda for op add
INFO:compile_engine:Use implementation injective.cuda for op cast
INFO:compile_engine:Use implementation injective.cuda for op nn.relu
INFO:compile_engine:Use implementation injective.cuda for op cast
INFO:compile_engine:Use implementation injective.cuda for op fixed_point_multiply
INFO:compile_engine:Use implementation injective.cuda for op clip
INFO:compile_engine:Use implementation injective.cuda for op cast
INFO:compile_engine:Use implementation conv2d_nchw_int8.cuda for op nn.conv2d
INFO:compile_engine:Use implementation injective.cuda for op cast
INFO:compile_engine:Use implementation injective.cuda for op fixed_point_multiply
INFO:compile_engine:Use implementation injective.cuda for op add
INFO:compile_engine:Use implementation injective.cuda for op cast
INFO:compile_engine:Use implementation injective.cuda for op nn.relu
INFO:compile_engine:Use implementation injective.cuda for op cast
INFO:compile_engine:Use implementation injective.cuda for op fixed_point_multiply
INFO:compile_engine:Use implementation injective.cuda for op clip
INFO:compile_engine:Use implementation injective.cuda for op cast
INFO:compile_engine:Use implementation pool.cuda for op nn.max_pool2d
INFO:compile_engine:Use implementation injective.cuda for op cast
INFO:compile_engine:Use implementation injective.cuda for op fixed_point_multiply
INFO:compile_engine:Use implementation injective.cuda for op cast
INFO:compile_engine:Use implementation injective.cuda for op fixed_point_multiply
INFO:compile_engine:Use implementation conv2d_nchw_int8.cuda for op nn.conv2d
INFO:compile_engine:Use implementation injective.cuda for op cast
INFO:compile_engine:Use implementation injective.cuda for op fixed_point_multiply
INFO:compile_engine:Use implementation injective.cuda for op add
INFO:compile_engine:Use implementation injective.cuda for op cast
INFO:compile_engine:Use implementation injective.cuda for op nn.relu
INFO:compile_engine:Use implementation injective.cuda for op cast
INFO:compile_engine:Use implementation injective.cuda for op fixed_point_multiply
INFO:compile_engine:Use implementation injective.cuda for op cast
INFO:compile_engine:Use implementation injective.cuda for op fixed_point_multiply
INFO:compile_engine:Use implementation injective.cuda for op clip
INFO:compile_engine:Use implementation injective.cuda for op cast
INFO:compile_engine:Use implementation conv2d_nchw_int8.cuda for op nn.conv2d
INFO:compile_engine:Use implementation injective.cuda for op cast
INFO:compile_engine:Use implementation injective.cuda for op fixed_point_multiply
INFO:compile_engine:Use implementation injective.cuda for op add
INFO:compile_engine:Use implementation injective.cuda for op cast
INFO:compile_engine:Use implementation injective.cuda for op nn.relu
INFO:compile_engine:Use implementation conv2d_nchw_int8.cuda for op nn.conv2d
INFO:compile_engine:Use implementation injective.cuda for op cast
INFO:compile_engine:Use implementation injective.cuda for op fixed_point_multiply
INFO:compile_engine:Use implementation injective.cuda for op add
INFO:compile_engine:Use implementation injective.cuda for op cast
INFO:compile_engine:Use implementation injective.cuda for op nn.relu
INFO:compile_engine:Use implementation injective.cuda for op cast
INFO:compile_engine:Use implementation conv2d_nchw_int8.cuda for op nn.conv2d
INFO:compile_engine:Use implementation injective.cuda for op cast
INFO:compile_engine:Use implementation injective.cuda for op fixed_point_multiply
INFO:compile_engine:Use implementation injective.cuda for op add
INFO:compile_engine:Use implementation injective.cuda for op cast
INFO:compile_engine:Use implementation injective.cuda for op nn.relu
INFO:compile_engine:Use implementation injective.cuda for op cast
INFO:compile_engine:Use implementation injective.cuda for op fixed_point_multiply
INFO:compile_engine:Use implementation injective.cuda for op cast
INFO:compile_engine:Use implementation injective.cuda for op fixed_point_multiply
INFO:compile_engine:Use implementation injective.cuda for op clip
INFO:compile_engine:Use implementation injective.cuda for op cast
INFO:compile_engine:Use implementation conv2d_nchw_int8.cuda for op nn.conv2d
INFO:compile_engine:Use implementation injective.cuda for op cast
INFO:compile_engine:Use implementation injective.cuda for op fixed_point_multiply
INFO:compile_engine:Use implementation injective.cuda for op add
INFO:compile_engine:Use implementation injective.cuda for op cast
INFO:compile_engine:Use implementation injective.cuda for op nn.relu
INFO:compile_engine:Use implementation conv2d_nchw_int8.cuda for op nn.conv2d
INFO:compile_engine:Use implementation injective.cuda for op cast
INFO:compile_engine:Use implementation injective.cuda for op fixed_point_multiply
INFO:compile_engine:Use implementation injective.cuda for op add
INFO:compile_engine:Use implementation injective.cuda for op cast
INFO:compile_engine:Use implementation injective.cuda for op nn.relu
INFO:compile_engine:Use implementation injective.cuda for op cast
INFO:compile_engine:Use implementation injective.cuda for op fixed_point_multiply
INFO:compile_engine:Use implementation injective.cuda for op clip
INFO:compile_engine:Use implementation injective.cuda for op cast
INFO:compile_engine:Use implementation conv2d_nchw_int8.cuda for op nn.conv2d
INFO:compile_engine:Use implementation injective.cuda for op cast
INFO:compile_engine:Use implementation injective.cuda for op fixed_point_multiply
INFO:compile_engine:Use implementation injective.cuda for op add
INFO:compile_engine:Use implementation injective.cuda for op cast
INFO:compile_engine:Use implementation injective.cuda for op nn.relu
INFO:compile_engine:Use implementation injective.cuda for op cast
INFO:compile_engine:Use implementation conv2d_nchw_int8.cuda for op nn.conv2d
INFO:compile_engine:Use implementation injective.cuda for op cast
INFO:compile_engine:Use implementation injective.cuda for op fixed_point_multiply
INFO:compile_engine:Use implementation injective.cuda for op add
INFO:compile_engine:Use implementation injective.cuda for op cast
INFO:compile_engine:Use implementation injective.cuda for op nn.relu
INFO:compile_engine:Use implementation injective.cuda for op cast
INFO:compile_engine:Use implementation injective.cuda for op fixed_point_multiply
INFO:compile_engine:Use implementation pool.cuda for op nn.avg_pool2d
INFO:compile_engine:Use implementation injective.cuda for op divide
INFO:compile_engine:Use implementation injective.cuda for op add
INFO:compile_engine:Use implementation injective.cuda for op round
INFO:compile_engine:Use implementation injective.cuda for op cast
INFO:compile_engine:Use implementation injective.cuda for op clip
INFO:compile_engine:Use implementation injective.cuda for op cast
INFO:compile_engine:Use implementation injective.cuda for op cast
INFO:compile_engine:Use implementation injective.cuda for op subtract
INFO:compile_engine:Use implementation injective.cuda for op cast
INFO:compile_engine:Use implementation injective.cuda for op multiply
INFO:compile_engine:Use implementation conv2d_nchw_int8.cuda for op nn.conv2d
INFO:compile_engine:Use implementation injective.cuda for op cast
INFO:compile_engine:Use implementation injective.cuda for op fixed_point_multiply
INFO:compile_engine:Use implementation injective.cuda for op add
INFO:compile_engine:Use implementation injective.cuda for op cast
INFO:compile_engine:Use implementation injective.cuda for op nn.relu
INFO:compile_engine:Use implementation injective.cuda for op cast
INFO:compile_engine:Use implementation injective.cuda for op fixed_point_multiply
INFO:compile_engine:Use implementation injective.cuda for op cast
INFO:compile_engine:Use implementation injective.cuda for op fixed_point_multiply
INFO:compile_engine:Use implementation injective.cuda for op clip
INFO:compile_engine:Use implementation injective.cuda for op cast
INFO:compile_engine:Use implementation conv2d_nchw_int8.cuda for op nn.conv2d
INFO:compile_engine:Use implementation injective.cuda for op cast
INFO:compile_engine:Use implementation injective.cuda for op fixed_point_multiply
INFO:compile_engine:Use implementation injective.cuda for op add
INFO:compile_engine:Use implementation injective.cuda for op cast
INFO:compile_engine:Use implementation injective.cuda for op nn.relu
INFO:compile_engine:Use implementation conv2d_nchw_int8.cuda for op nn.conv2d
INFO:compile_engine:Use implementation injective.cuda for op cast
INFO:compile_engine:Use implementation injective.cuda for op fixed_point_multiply
INFO:compile_engine:Use implementation injective.cuda for op add
INFO:compile_engine:Use implementation injective.cuda for op cast
INFO:compile_engine:Use implementation injective.cuda for op nn.relu
INFO:compile_engine:Use implementation injective.cuda for op cast
INFO:compile_engine:Use implementation conv2d_nchw_int8.cuda for op nn.conv2d
INFO:compile_engine:Use implementation injective.cuda for op cast
INFO:compile_engine:Use implementation injective.cuda for op fixed_point_multiply
INFO:compile_engine:Use implementation injective.cuda for op add
INFO:compile_engine:Use implementation injective.cuda for op cast
INFO:compile_engine:Use implementation injective.cuda for op nn.relu
INFO:compile_engine:Use implementation injective.cuda for op cast
INFO:compile_engine:Use implementation injective.cuda for op cast
INFO:compile_engine:Use implementation injective.cuda for op fixed_point_multiply
INFO:compile_engine:Use implementation injective.cuda for op clip
INFO:compile_engine:Use implementation injective.cuda for op cast
INFO:compile_engine:Use implementation conv2d_nchw_int8.cuda for op nn.conv2d
INFO:compile_engine:Use implementation injective.cuda for op cast
INFO:compile_engine:Use implementation injective.cuda for op fixed_point_multiply
INFO:compile_engine:Use implementation injective.cuda for op add
INFO:compile_engine:Use implementation injective.cuda for op cast
INFO:compile_engine:Use implementation injective.cuda for op nn.relu
INFO:compile_engine:Use implementation conv2d_nchw_int8.cuda for op nn.conv2d
INFO:compile_engine:Use implementation injective.cuda for op cast
INFO:compile_engine:Use implementation injective.cuda for op fixed_point_multiply
INFO:compile_engine:Use implementation injective.cuda for op add
INFO:compile_engine:Use implementation injective.cuda for op cast
INFO:compile_engine:Use implementation injective.cuda for op nn.relu
INFO:compile_engine:Use implementation injective.cuda for op cast
INFO:compile_engine:Use implementation injective.cuda for op fixed_point_multiply
INFO:compile_engine:Use implementation injective.cuda for op clip
INFO:compile_engine:Use implementation injective.cuda for op cast
INFO:compile_engine:Use implementation conv2d_nchw_int8.cuda for op nn.conv2d
INFO:compile_engine:Use implementation injective.cuda for op cast
INFO:compile_engine:Use implementation injective.cuda for op fixed_point_multiply
INFO:compile_engine:Use implementation injective.cuda for op add
INFO:compile_engine:Use implementation injective.cuda for op cast
INFO:compile_engine:Use implementation injective.cuda for op nn.relu
INFO:compile_engine:Use implementation injective.cuda for op cast
INFO:compile_engine:Use implementation injective.cuda for op fixed_point_multiply
INFO:compile_engine:Use implementation conv2d_nchw_int8.cuda for op nn.conv2d
INFO:compile_engine:Use implementation injective.cuda for op cast
INFO:compile_engine:Use implementation injective.cuda for op fixed_point_multiply
INFO:compile_engine:Use implementation injective.cuda for op add
INFO:compile_engine:Use implementation injective.cuda for op cast
INFO:compile_engine:Use implementation injective.cuda for op nn.relu
INFO:compile_engine:Use implementation injective.cuda for op cast
INFO:compile_engine:Use implementation injective.cuda for op fixed_point_multiply
INFO:compile_engine:Use implementation pool.cuda for op nn.avg_pool2d
INFO:compile_engine:Use implementation injective.cuda for op divide
INFO:compile_engine:Use implementation injective.cuda for op add
INFO:compile_engine:Use implementation injective.cuda for op round
INFO:compile_engine:Use implementation injective.cuda for op cast
INFO:compile_engine:Use implementation injective.cuda for op clip
INFO:compile_engine:Use implementation injective.cuda for op cast
INFO:compile_engine:Use implementation injective.cuda for op cast
INFO:compile_engine:Use implementation injective.cuda for op subtract
INFO:compile_engine:Use implementation injective.cuda for op cast
INFO:compile_engine:Use implementation injective.cuda for op multiply
learning_based_quantize.py:100: DeprecationWarning: legacy graph runtime behaviour of producing json / lib / params will be removed in the next release 
  graph, lib, params = relay.build(mod, target)
^CTraceback (most recent call last):
  File "learning_based_quantize.py", line 169, in <module>
    acc = test_quantize_acc(config, rec_val)
  File "learning_based_quantize.py", line 150, in test_quantize_acc
    acc = eval_acc(mod, val_data, batch_fn, target='cuda', ctx=tvm.gpu(2))
  File "learning_based_quantize.py", line 117, in eval_acc
    acc_top1.update(label, [mx.nd.array(out_arr.asnumpy())])
  File "/home/woongkyu/hago/tvm/python/tvm/runtime/ndarray.py", line 174, in asnumpy
    check_call(_LIB.TVMArrayCopyToBytes(self.handle, data, nbytes))
KeyboardInterrupt

(tvm-build) ]0;woongkyu@watson: ~/hago/tvm/tests/python/nightly/quantizationwoongkyu@watson:~/hago/tvm/tests/python/nightly/quantization$ exit
exit

Script done on 2021-03-15 21:22:24+0900
